model/model.pth (torch, 276724 bytes, 6 tensors)

linear1.weight f4 [256, 7]
0.25452605 -0.23125048 0.13421759 -0.09359442 0.5000316 0.09533622 -0.0021145495 -0.22871783
0.14839387 -0.25720045 -0.157957 -0.24446003 -0.14670093 0.29870674 0.25488117 0.120856665
0.19992489 0.10939534 -0.18560946 -0.009951426 -0.12479265 -0.28755307 0.14621367 0.21705292
-0.073368296 -0.07234323 -0.018201249 -0.20471713 -0.3935956 -0.44036952 0.18856792 0.099420294
0.077819526 0.39439523 0.07842712 0.19724302 -0.21597321 -0.22493151 -0.23169154 0.2581608
-0.24464425 0.17331399 -0.21134034 -0.26780903 -0.07597776 -0.44914967 -0.4416571 0.012308327
0.23470068 -0.056534257 0.04772647 0.15527801 -0.24186255 -0.29529315 0.100263156 -0.026876645
0.39798874 0.093182 -0.18867709 0.2457337 0.07943671 0.18115522 -0.19913036 -0.23439565
-0.25219563 -0.06926641 -0.090372995 0.07688645 0.22821307 0.6601207 0.2330121 -0.43017712
0.2133676 -0.124682866 -0.34737822 0.15143481 0.29255638 -0.29560348 -0.052731458 -0.0131918425
0.17295739 0.18352914 -0.14522083 0.3000199 0.225352 0.30106533 0.3640442 -0.1937903
-0.19390278 -0.07527729 -0.31687808 -0.36807433 -0.28011835 0.26516193 -0.13093059 0.12938562
0.30251572 0.4157715 -0.2645496 -0.20483324 0.43274254 0.090248816 -0.2207743 0.40872908
0.06284512 -0.35246405 0.1677459 0.026319787 -0.32266757 0.15166453 -0.12516025 0.25496083
-0.2618196 0.1764434 -0.36951768 0.4151387 0.2915767 -0.19715479 0.025027724 -0.49101588
0.03714892 -0.091424584 -0.15690197 0.18179934 0.021276891 0.19545841 -0.07947269 -0.17471315
-0.2771969 0.092658356 -0.3272693 -0.12751536 -0.08315419 -0.29127744 0.4307664 0.40424663
0.2688493 0.30891496 0.26251116 -0.006253479 -0.040115703 -0.35119417 0.19585732 0.16495363
0.18031003 0.22458322 -0.18939903 0.39099842 -0.015226381 0.33785442 0.33393365 0.10503904
0.121194184 -0.012438386 -0.35575423 0.1610422 -0.21960117 0.26379287 -0.034293644 -0.17531346
0.22663482 0.14819624 0.04960085 0.17538829 0.26340166 -0.1994988 -0.2845935 -0.21490261
-0.3924974 -0.2897104 0.025343006 -0.046955053 -0.022794614 0.14733154 -0.12678725 -0.20171039
-0.13680033 -0.2454882 0.041084617 -0.19282933 0.09516084 0.11046351 0.22411054 -0.19387586
-0.278744 -0.11726012 0.19655843 -0.27114657 0.35970268 -0.05645623 -0.39527273 -0.086028926
-0.190353 -0.0043594902 -0.16598463 0.21043263 -0.34506488 0.2060857 -0.041219123 -0.3805175
-0.11895764 -0.13050693 0.14737344 -0.34292185 -0.13036543 -0.3937589 0.041697506 -0.144553
0.11229498 0.08350476 -0.24637039 0.11880621 0.20713653 -0.35673174 -0.023761699 -0.34312415
-0.20033942 -0.2716711 0.44506022 0.35352862 0.25852007 -0.47374022 0.3842187 -0.189659
-0.12117405 0.0886615 -0.06978179 0.00075230136 0.0040128473 -0.38615894 0.24033412 0.40219456
0.085166335 0.31749573 -0.032732867 -0.039943013 0.27707428 -0.2666848 -0.19634268 0.18020464
0.3149106 -0.42163575 -0.15053631 -0.49530387 -0.11787725 -0.430743 -0.10510775 0.18937707
-0.28957662 -0.28974524 0.12224468 -0.08357718 -0.33122692 -0.208648 -0.102077514 0.25897688
00000000: 3d51 823e edcc 6cbe 5670 093e 6eae bfbd
00000010: 1202 003f a33f c33d 4194 0abb 0235 6abe
00000020: 90f4 173e c7af 83be 7bbf 21be bb53 7abe
00000030: c538 16be 17f0 983e c97f 823e b383 f73d
00000040: 1cb9 4c3e aa0a e03d 6810 3ebe 4e0b 23bc
00000050: 4a93 ffbd 283a 93be 09b9 153e 1f43 5e3e
00000060: 1e42 96bd b028 94bd c91a 95bc 5ea1 51be
00000070: 5d85 c9be 1d78 e1be f317 413e de9c cb3d
00000080: d85f 9f3d 2cee c93e 669e a03d 13fa 493e
00000090: 1528 5dbe 7254 66be 8c40 6dbe a72d 843e
000000a0: 0684 7abe 3979 313e 9a69 58be 441e 89be
000000b0: 3a9a 9bbd f2f6 e5be e120 e2be dda8 493c
000000c0: 6055 703e 7790 67bd d57c 433d 3301 1f3e
000000d0: d1aa 77be aa30 97be c556 cd3d 692c dcbc
000000e0: 2ec5 cb3e 34d6 be3d 9134 41be 9da1 7b3e
000000f0: b7af a23d c180 393e d4e8 4bbe 6a05 70be
00000100: c91f 81be 8cdb 8dbd 7a15 b9bd a576 9d3d
00000110: b0b0 693e acfd 283f b99a 6e3e 2d40 dcbe
00000120: 097d 5a3e bb59 ffbd 8fdb b1be ba11 1b3e
00000130: f3c9 953e 5759 97be f1fc 57bd 9922 58bc
00000140: be1b 313e 10ef 3b3e c5b4 14be 359c 993e
00000150: adc2 663e 3c25 9a3e 0064 ba3e f770 46be
00000160: 738e 46be fb2a 9abd d83d a2be 3d74 bcbe
00000170: ac6b 8fbe 4ec3 873e ab12 06be aa7d 043e
00000180: 57e3 9a3e 01e0 d43e 0c73 87be cebf 51be
00000190: 6e90 dd3e 5fd4 b83d a812 62be f044 d13e
000001a0: f1b4 803d 2b76 b4be 95c5 2b3e 989c d73c
000001b0: af34 a5be f24d 1b3e 022a 00be 3a8a 823e
000001c0: 380d 86be 94ad 343e 6c31 bdbe 0f8d d43e
000001d0: 8b49 953e f2e2 49be f106 cd3c 6f66 fbbe
000001e0: 7729 183d d03c bbbd e9aa 20be 9b29 3a3e
000001f0: e04c ae3c 4026 483e 94c2 a2bd 01e8 32be
00000200: c1ec 8dbe aac3 bd3d d78f a7be 6393 02be
00000210: be4c aabd 5122 95be 6a8d dc3e 6af9 ce3e
00000220: 9ea6 893e 1a2a 9e3e dd67 863e fce9 ccbb
00000230: 5d50 24bd b9cf b3be d28e 483e 9be9 283e
00000240: 31a3 383e 25f9 653e d2f1 41be f230 c83e
00000250: 1278 79bc 41fb ac3e 5af9 aa3e b51e d73d
00000260: a834 f83d 5fca 4bbc 6b25 b6be 3fe8 243e
00000270: 21df 60be dc0f 873e 7e77 0cbd 5f85 33be
00000280: f512 683e c1c0 173e 432a 4b3d fd98 333e
00000290: 95dc 863e 6a49 4cbe 3db6 91be 6e0f 5cbe
000002a0: 6bf5 c8be ec54 94be 239c cf3c f153 40bd
000002b0: c5bb babc 14de 163e 84d4 01be 2b8d 4ebe
000002c0: 6315 0cbe 4261 7bbe 5848 283d 0d75 45be
000002d0: b0e3 c23d b13a e23d 3c7d 653e 6587 46be
000002e0: 89b7 8ebe 1326 f0bd 9d46 493e b9d3 8abe
000002f0: f32a b83e a63e 67bd 3061 cabe ef2f b0bd
00000300: e6eb 42be 0eda 8ebb e0f7 29be a77b 573e
00000310: 58ac b0be 2108 533e 62d5 28bd 31d3 c2be
00000320: 10a0 f3bd 9ca3 05be 10e9 163e 7493 afbe
00000330: 847e 05be c49a c9be 01cb 2a3d b405 14be
00000340: e9fa e53d 8b04 ab3d 8548 7cbe ac50 f33d
00000350: 991b 543e 8ba5 b6be e5a7 c2bc f8ad afbe
00000360: c725 4dbe 7918 8bbe efde e33e b401 b53e
00000370: be5c 843e 148e f2be 50b8 c43e f835 42be
00000380: 1a2a f8bd 2994 b53d c1e9 8ebd 1736 453a
00000390: 347e 833b a0b6 c5be 261a 763e 72ec cd3e
000003a0: b06b ae3d cd8e a23e e612 06bd 499b 23bd
000003b0: aedc 8d3e e98a 88be 0e0e 49be 9187 383e
000003c0: f63b a13e a4e0 d7be 3126 1abe 7898 fdbe
000003d0: a169 f1bd 598a dcbe bb42 d7bd 10ec 413e
000003e0: 6343 94be 7d59 94be 6b5b fa3d 832a abbd
000003f0: 9396 a9be d2a7 55be 040e d1bd 9e98 843e

linear1.bias f4 [256]
-0.25387993 -0.042433985 -0.075409606 0.14564075 -0.060710337 0.3887496 -0.033328157 -0.43035576
0.35341418 -0.006268095 -0.027088402 -0.3644986 0.043273833 0.48446414 0.2552166 -0.4538174
0.2913143 0.015792409 -0.04126742 -0.3235958 -0.22247325 -0.19335383 -0.18430786 0.08548114
0.119129516 -0.2912226 0.50120556 0.07357657 -0.4321048 0.20174867 -0.22056286 -0.05483528
-0.0041618054 0.14742504 -0.32084468 -0.24647512 -0.04427157 -0.12044998 -0.22550108 -0.09831842
0.32548183 0.040744163 -0.38087794 0.19458562 0.23195104 0.15416259 -0.0741675 -0.28776163
-0.17999004 -0.2403473 0.006871013 -0.17284532 0.049364407 0.12939796 0.026112286 0.1513307
-0.3743738 -0.41353264 -0.1807974 -0.24387059 0.39710256 0.21576038 -0.49327573 0.17313173
-0.07757312 0.23183897 -0.08634445 0.3122907 -0.19786853 -0.13036245 0.07012252 0.115375355
0.045766048 -0.09061741 -0.26581585 0.30675682 -0.122735254 -0.20727776 0.118777744 0.2403295
-0.13632153 0.12007803 -0.3395413 -0.24980396 -0.29278967 -0.090570934 0.05128242 -0.24691592
-0.072050326 -0.039703812 -0.16355738 -0.40372953 -0.03392954 0.15577227 -0.20414075 -0.16449809
0.29766658 -0.3927508 -0.34127817 -0.32484382 -0.18752207 -0.44431263 -0.3731134 -0.09230161
-0.1755406 -0.27909142 -0.042241294 0.20108938 0.019059405 0.114981495 -0.31868094 0.059998404
-0.36442986 0.043840278 -0.1565504 -0.27288935 -0.36749062 0.15311761 -0.105229855 -0.011659535
-0.3776618 -0.20270956 -0.47180593 -0.09429834 -0.37212035 0.19545145 -0.3712971 -0.18016878
-0.4054007 -0.30931163 -0.23199624 -0.0974142 -0.43940768 0.34634316 -0.170748 -0.29326817
0.19631016 0.33830577 -0.20972694 -0.14518835 0.20030355 0.07614653 0.027984437 -0.08931957
0.04165245 -0.26977772 -0.42619035 -0.17064722 0.39512718 -0.3231013 -0.068844005 0.1893928
-0.15105139 0.2790269 0.14404947 -0.24202783 0.05106064 0.09571626 0.13655251 0.14533757
0.0717717 0.16523294 0.026836673 0.02498536 0.2991909 0.18389271 0.2882735 0.025994677
-0.33429733 -0.34712544 0.03083631 0.026725734 0.17429629 0.019453693 0.39856362 -0.38083127
-0.41977954 -0.31108165 -0.22857448 -0.28176028 0.33048812 0.08024954 -0.014942167 0.026838895
0.1193047 0.35619032 -0.5176592 -0.35897025 -0.12044274 -0.17049713 0.22636724 -0.025629401
-0.07968518 -0.07908436 -0.2564423 0.27606827 -0.1913114 0.2277639 -0.20792556 -0.17299052
-0.25604036 -0.3113376 -0.02573923 0.23857714 -0.23046377 -0.45039278 0.27536753 -0.42521793
0.30674973 -0.026369177 0.24621022 -0.20215753 -0.20164117 -0.022346178 -0.19647436 -0.007337962
0.64326 -0.12858538 -0.2581186 -0.17910525 -0.25383925 -0.05929912 0.21452586 0.033924542
-0.26515135 -0.13639127 -0.07665393 -0.0049826526 0.16687322 0.30821344 -0.2927383 -0.25770664
0.061225325 0.037237883 0.09276613 -0.4173206 0.32433218 -0.07569219 0.21885507 0.042543743
0.30729312 -0.19879432 -0.42902613 -0.2736393 0.27093476 -0.29158497 0.20155825 -0.30835748
0.19025794 0.13021652 -0.10043474 -0.32384405 0.25161642 -0.14754191 -0.121955216 0.13391474
00000000: 8dfc 81be 42cf 2dbd 5a70 9abd d922 153e
00000010: 67ab 78bd 300a c73e 1b83 08bd 9757 dcbe
00000020: b4f2 b43e 9864 cdbb 7fe8 ddbc 8f9f babe
00000030: e73f 313d af0b f83e c0ab 823e c15a e8be
00000040: 2627 953e 155f 813c 0708 29bd 59ae a5be
00000050: 07d0 63be 8cfe 45be 33bb 3cbe bc10 af3d
00000060: 2dfa f33d 211b 95be 024f 003f 50af 963d
00000070: d73c ddbe 3497 4e3e 3bdb 61be f59a 60bd
00000080: c15f 88bb 97f6 163e c145 a4be f963 7cbe
00000090: 1b56 35bd 7bae f6bd c1e9 66be 2b5b c9bd
000000a0: 8ea5 a63e 5ae3 263d 6f02 c3be 7441 473e
000000b0: 9384 6d3e ccdc 1d3e 21e5 97bd 7e55 93be
000000c0: 4f4f 38be 9a1d 76be 3c26 e13b 5dfe 30be
000000d0: 5532 4a3d e680 043e 6fe9 d53c 6ff6 1a3e
000000e0: ecad bfbe 8dba d3be f422 39be 36b9 79be
000000f0: 0751 cb3e 4af0 5c3e a38e fcbe 7249 313e
00000100: a8de 9ebd 3267 6d3e 5cd5 b0bd 91e4 9f3e
00000110: 0c9e 4abe bc7d 05be 659c 8f3d ea49 ec3d
00000120: 2e75 3b3d 9f95 b9bd 0419 88be 3b0f 9d3e
00000130: 9f5c fbbd 9f40 54be bf41 f33d f018 763e
00000140: df97 0bbe 78eb f53d 5bd8 adbe 9ccc 7fbe
00000150: 87e8 95be 417d b9bd 840d 523d 87d7 7cbe
00000160: 1f8f 93bd 77a0 22bd 967b 27be a3b5 cebe
00000170: b4f9 0abd c482 1f3e 460a 51be 3072 28be
00000180: c167 983e a216 c9be 03bc aebe ee51 a6be
00000190: c905 40be f27c e3be b808 bfbe a008 bdbd
000001a0: eac0 33be 12e5 8ebe 3505 2dbd 60ea 4d3e
000001b0: 7822 9c3c 6b7b eb3d 262a a3be e3c0 753d
000001c0: 8d96 babe dd91 333d c04e 20be 27b8 8bbe
000001d0: bb27 bcbe ddca 1c3e c082 d7bd a207 3fbc
000001e0: e35c c1be 1893 4fbe 8c90 f1be 7d1f c1bd
000001f0: 8f86 bebe 6d24 483e a71a bebe 2a7e 38be
00000200: ae90 cfbe 185e 9ebe 6c90 6dbe 1981 c7bd
00000210: 0bfa e0be e453 b13e 90d8 2ebe 3f27 96be
00000220: 8805 493e 6a36 ad3e a9c2 56be 41ac 14be
00000230: 601c 4d3e b6f2 9b3d 9e3f e53c 2eed b6bd
00000240: c29b 2a3d 4e20 8abe 9f35 dabe 25be 2ebe
00000250: 1c4e ca3e 896d a5be 16fe 8cbd 30f0 413e
00000260: 37ad 1abe 9ddc 8e3e b481 133e 25d6 77be
00000270: f624 513d e306 c43d 6cd4 0b3e 5fd3 143e
00000280: 0bfd 923d d332 293e 95d8 db3c 19ae cc3c
00000290: 8d2f 993e 5f4e 3c3e 9698 933e caf2 d43c
000002a0: 0529 abbe 6dba b1be 6e9c fc3c edef da3c
000002b0: ba7a 323e 5a5d 9f3c 8810 cc3e 51fc c2be
000002c0: 58ed d6be 1846 9fbe 6e0f 6abe e242 90be
000002d0: bd35 a93e df59 a43d fecf 74bc 3edd db3c
000002e0: 0656 f43d 945e b63e 5085 04bf f3ca b7be
000002f0: afaa f6bd cd96 2ebe d0cc 673e c0f4 d1bc
00000300: fc31 a3bd fbf6 a1bd 684c 83be d258 8d3e
00000310: 23e7 43be f13a 693e 70ea 54be 6d24 31be
00000320: b917 83be a467 9fbe 14db d2bc 914d 743e
00000330: b2fe 6bbe e299 e6be f9fc 8c3e 2ab6 d9be
00000340: 4d0e 9d3e 2c04 d8bc 881e 7c3e 6202 4fbe
00000350: 067b 4ebe 550f b7bc 9330 49be 4973 f0bb
00000360: b0ac 243f e3ab 03be 1f28 84be 5e67 37be
00000370: 38f7 81be a2e3 72bd abac 5b3e 76f4 0a3d
00000380: ebc1 87be 27aa 0bbe bcfc 9cbd 8545 a3bb
00000390: d0e0 2a3e 27ce 9d3e cbe1 95be 20f2 83be
000003a0: 68c7 7a3d c086 183d 2bfc bd3d 0cab d5be
000003b0: de0e a63e 8204 9bbd 8b1b 603e 5942 2e3d
000003c0: 8655 9d3e bd90 4bbe 50a9 dbbe 731a 8cbe
000003d0: f6b7 8a3e a04a 95be 4965 4e3e 08e1 9dbe
000003e0: fad2 423e 7b57 053e bbb0 cdbd e3ce a5be
000003f0: ded3 803e 3a15 17be a8c3 f9bd f220 093e

linear2.weight f4 [256, 256]
-0.06998791 -0.06217464 0.02100673 -0.034453236 0.036816575 -0.06516419 0.034009814 -0.06275404
-0.04713208 0.012131301 0.04973871 0.038475797 0.011907566 0.04425712 0.01805348 -0.036065105
-0.01970502 -0.056334794 -0.043123435 -0.0347525 -0.07572767 -0.08112604 0.007513188 -0.036347345
-0.016099893 0.051285498 -0.07064976 -0.0270627 0.0033402313 0.06239089 0.034424577 -0.018361745
0.0067941584 0.026225684 -0.022473002 -0.020088803 0.04289065 -0.054914262 -0.056296058 0.027720561
-0.0342746 -0.07510441 -0.0036054477 0.062889986 -0.06208458 -0.04343571 -0.046664577 -0.0135564655
0.016331188 0.05058434 0.021380216 -0.020185016 0.00014746934 -0.04647194 -0.027746921 -0.029384043
-0.018532217 0.013315031 -0.024505988 0.018379372 -0.03242384 -0.069331415 -0.041290294 0.01362968
0.029990023 0.0024575028 0.021370985 0.012484325 -0.06608611 -0.0152359 -0.012485109 0.018116683
0.029594887 -0.027023114 0.03817483 0.0087067345 -0.024362732 0.04345507 -0.019955836 -0.08367601
-0.0152918035 0.0041698054 -0.024970682 -0.010629246 0.03411816 0.010346751 0.034376424 0.01233656
-0.017664172 0.027231589 0.040733896 -0.004878114 -0.0841645 0.026577909 0.002729956 0.0036663276
-0.019149879 0.0067915893 -0.011961415 -0.016566545 0.042252325 0.031453043 -0.021853104 -0.07940781
-0.03447831 -0.022704259 -0.07958985 -0.06558978 0.0025182962 -0.05041693 0.04010631 0.00941584
-0.05619546 0.0025992296 -0.019293025 -0.0032260446 0.0068062046 -0.0732513 -0.029630981 -0.040370084
-0.056851543 -0.012162358 -0.00017700755 -0.021366477 -0.03764829 -0.051524423 0.01768051 -0.07724106
-0.027384885 0.029658988 -0.012267446 -0.02946066 -0.041139465 0.018989656 0.033231996 -0.012428491
-0.0020536548 -0.06866241 0.0071845884 0.009445764 0.0015681933 -0.016649097 -0.04246504 0.0021374498
-0.047605716 0.05060286 -0.03869963 0.009824278 0.04915838 -0.027259156 -0.05419811 0.044229686
-0.07329228 0.035903577 -0.017800614 0.051883407 0.026798764 -0.05234136 -0.03998729 -0.028887277
-0.02367232 -0.05641909 0.028126525 0.013471752 -0.007113388 -0.041185614 -0.0481733 -0.06924976
-0.0043175616 -0.04226037 -0.025000378 0.026057728 0.03156462 -0.060688607 0.010404921 0.01564297
-0.03559733 -0.016142713 0.010239335 -0.021457776 0.058534987 0.0060603702 -0.06748216 -0.06699594
-0.05631459 -0.082835354 -0.009574829 -0.0053511113 0.026700681 0.031003669 -0.006271327 -0.011989869
0.05818959 -0.05201451 0.033839375 0.002202432 0.039519705 0.0027128458 0.051346347 -0.005669104
-0.01892253 -0.02100993 -0.012755839 0.0068158507 -0.022397988 -0.041156687 0.05380376 0.041199166
0.03677895 0.049150504 -0.007134282 0.037115186 -0.0102052875 0.00092018384 0.03985457 0.037432313
0.016651427 -0.015662447 -0.009447551 0.028827354 -0.016228067 -0.0705181 0.020488322 -0.018919885
0.028229605 0.03114203 0.035906997 -0.061376214 -0.035829958 0.053313766 0.042689018 -0.013144477
0.050398286 -0.019170078 -0.050580774 -0.028992075 -0.050397784 -0.05391945 0.032787964 -0.036809813
0.049466275 -0.02676036 0.02852793 0.009598395 -0.021777028 -0.059107438 0.04763268 -0.033358414
-0.07927411 0.020375548 -0.0139232045 0.030050037 -0.0714788 0.021609548 0.0272756 -0.025451463
00000000: d255 8fbd d6aa 7ebd 4e16 ac3c d61e 0dbd
00000010: facc 163d ce74 85bd e04d 0b3d 3185 80bd
00000020: 910d 41bd 5dc2 463c d1ba 4b3d cc98 1d3d
00000030: f417 433c f446 353d e4e4 933c 01b9 13bd
00000040: 6c6c a1bc 50bf 66bd 33a2 30bd a358 0ebd
00000050: 1c17 9bbd 6925 a6bd 3031 f63b f4e0 14bd
00000060: ece3 83bc be10 523d d2b0 90bd 98b2 ddbc
00000070: c8e7 5a3b 978d 7f3d c900 0d3d 5f6b 96bc
00000080: 88a1 de3b 3fd7 d63c 4d19 b8bc 4691 a4bc
00000090: 1bae 2f3d c7ed 60bd b296 66bd 3b16 e33c
000000a0: 8663 0cbd 57d0 99bd 6049 6cbb 77cc 803d
000000b0: 674c 7ebd a5e9 31bd 5b23 3fbd f01b 5ebc
000000c0: fcc8 853c 8631 4f3d 9025 af3c 0c5b a5bc
000000d0: 00a2 1a39 5c59 3ebd 834d e3bc ceb6 f0bc
000000e0: e0d0 97bc 4a27 5a3c c8c0 c8bc 5690 963c
000000f0: dcce 04bd a1fd 8dbd 0320 29bd 054f 5f3c
00000100: a3ad f53c 0e0e 213b 3412 af3c 0e8b 4c3c
00000110: 2858 87bd ff9f 79bc 588e 4cbc 7069 943c
00000120: fa70 f23c 945f ddbc 365d 1c3d b1a6 0e3c
00000130: 5a94 c7bc f2fd 313d 6c7a a3bc 545e abbd
00000140: 798a 7abc dda2 883b 518f ccbc 4a26 2ebc
00000150: 7cbf 0b3d 6b85 293c 4bce 0c3d 481f 4a3c
00000160: 74b4 90bc c814 df3c 96d8 263d 96d8 9fbb
00000170: 705e acbd eab9 d93c 10e9 323b c546 703b
00000180: 35e0 9cbc fb8b de3b d0f9 43bc 90b6 87bc
00000190: c610 2d3d e8d4 003d 4805 b3bc 90a0 a2bd
000001a0: 2139 0dbd 48fe b9bc 0100 a3bd ef53 86bd
000001b0: 000a 253b fc81 4ebd 8446 243d e544 1a3c
000001c0: 362d 66bd d657 2a3b 680c 9ebc 0c6c 53bb
000001d0: 9506 df3b c704 96bd acbc f2bc 1a5b 25bd
000001e0: 2add 68bd a044 47bc 1a9b 39b9 c008 afbc
000001f0: 1835 1abd 460b 53bd b8d6 903c 9030 9ebd
00000200: 4456 e0bc 68f7 f23c 66fd 48bc 7b57 f1bc
00000210: db81 28bd 3290 9b3c 461e 083d dfa0 4bbc
00000220: 9c96 06bb e19e 8cbd b26c eb3b 68c2 1a3c
00000230: d68b cd3a b063 88bc d2ef 2dbd 7514 0c3b
00000240: 36fe 42bd f244 4f3d 8183 1ebd 02f6 203c
00000250: 4c5a 493d 984e dfbc d6fe 5dbd 302a 353d
00000260: 431a 96bd a10f 133d 98d2 91bc b283 543d
00000270: 1589 db3c e563 56bd b6c9 23bd 03a5 ecbc
00000280: 74ec c1bc b417 67bd 9969 e63c a0b8 5c3c
00000290: 6c17 e9bb 3fb2 28bd 5e51 45bd d1d2 8dbd
000002a0: 557a 8dbb 3619 2dbd 98cd ccbc 0477 d53c
000002b0: e749 013d 9e94 78bd 6779 2a3c b025 803c
000002c0: 82ce 11bd b93d 84bc e2c2 273c 38c8 afbc
000002d0: 62c2 6f3d 1296 c63b 1634 8abd 2b35 89bd
000002e0: 21aa 66bd 95a5 a9bd bedf 1cbc 6058 afbb
000002f0: 63bb da3c 68fb fd3c b47f cdbb 2871 44bc
00000300: 3558 6e3d 2b0d 55bd 289b 0a3d ad56 103b
00000310: 6adf 213d 00ca 313b 8c50 523d e4c3 b9bb
00000320: 6c03 9bbc 041d acbc defd 50bc 8057 df3b
00000330: fc7b b7bc ea93 28bd 5561 5c3d 75c0 283d
00000340: 86a5 163d 0a52 493d b2c6 e9bb 1806 183d
00000350: 1434 27bc 7e38 713a 8c3e 233d a052 193d
00000360: 9368 883c 884e 80bc e7c9 1abc 5827 ec3c
00000370: b9f0 84bc cb6b 90bd 20d7 a73c e0fd 9abc
00000380: c641 e73c 921d ff3c 3713 133d a065 7bbd
00000390: 6fc2 12bd 895f 5a3d aeda 2e3d ef5b 57bc
000003a0: 6f6e 4e3d 910a 9dbc c92d 4fbd ca80 edbc
000003b0: e86d 4ebd a4da 5cbd ac4c 063d e3c5 16bd
000003c0: 269d 4a3d 8b38 dbbc 68b3 e93c 9642 1d3c
000003d0: bd65 b2bc a41a 72bd 7c1a 433d d5a2 08bd
000003e0: 775a a2bd 9fea a63c 271e 64bc 7f2b f63c
000003f0: 7a63 92bd 8206 b13c 1471 df3c 967f d0bc

linear2.bias f4 [256]
-0.06603701 -0.030489208 -0.07427977 -0.006227099 -0.057923682 -0.03452158 -0.032242388 0.02700566
-0.027245859 -0.058485057 -0.060187742 -0.06537072 -0.04278806 0.016147383 -0.0550715 -0.053103596
0.019381465 0.009597692 -0.049858347 -0.03260602 -0.053789575 0.055769663 -0.061595034 -0.044213124
-0.011590215 -0.008407185 -0.007349886 -0.039355822 -0.030265804 0.013386326 0.029242665 0.0031296827
-0.058785528 -0.008424521 -0.039485287 -0.083945125 -0.005967119 -0.026469046 -0.034966584 0.039667234
-0.041757476 0.07381491 0.019984316 -0.015395589 0.043189816 -0.022437468 -0.050119195 -0.014414086
-0.0031247856 0.0075855744 -0.073120326 -0.017880715 -0.058892693 -0.07293879 -0.0055005387 -0.0010692232
0.01734161 -0.018862007 0.009250888 0.029581524 -0.06904224 -0.021963926 -0.011773302 -0.07621035
0.01166512 -0.0067538545 -0.025695954 -0.0796335 -0.009501932 -0.051685657 0.009552445 -0.024277255
0.030865792 -0.059113458 -0.030081332 -0.04620069 -0.058070797 -0.03642892 -0.035871714 -0.045595087
-0.09291163 -0.049598087 -0.08393873 -0.07092431 0.020301832 0.039608892 -0.020870615 -0.004870448
-0.017160702 -0.009254114 0.020061707 -0.023928462 0.007367105 -0.07528741 -0.10094534 -0.049987856
0.014269296 0.038314696 0.022846835 -0.03687958 -0.022267198 -0.051038142 -0.047531087 -0.00924456
-0.0298802 0.054085124 -0.11252578 -0.043341212 0.026173504 0.015060375 -0.07779669 -0.06575209
-0.08217608 0.016918795 -0.03385844 -0.09804854 -0.059273694 -0.02454765 -0.104338124 -0.017448049
-0.0517665 -0.056853544 -0.068325505 -0.08425022 0.06587723 -0.0454765 0.008246463 -0.051773503
-0.024074312 -0.04071442 -0.03252745 -0.036187023 -0.042907413 -0.09024713 -0.08275172 -0.100232735
-0.098529905 -0.045469776 -0.07434982 -0.0893154 0.090567745 0.010314144 -0.044192813 -0.0035745203
-0.0162254 -0.007375395 -0.06553438 0.02457848 -0.0034775892 -0.018052569 0.0018538903 -0.094235845
0.005510141 -0.034636218 -0.062831864 0.019051827 -0.039330613 0.013606607 0.0048073526 0.026451983
-0.022598464 -0.06371557 -0.014313661 -0.046455137 -0.035751905 -0.042006187 -0.04023422 -0.056157473
-0.07557186 -0.050189365 0.023799127 0.014122878 -0.022455988 -0.035198983 -0.04837334 0.0009742224
-0.021665366 -0.04517224 -0.005709899 -0.01612637 -0.057163034 0.013863248 -0.042404436 -0.07116579
-0.08808897 -0.05580016 0.042248055 -0.0062434985 -0.020264981 -0.07490366 -0.028183475 0.014787706
-0.025157083 0.030814584 -0.055291634 0.04957495 0.026238129 -0.045290936 0.016813518 -0.052077934
-0.032274585 0.014613952 -0.024036823 -0.051179104 -0.048705492 -0.08938686 0.00251363 -0.010503493
-0.01441095 0.047217224 -0.06626226 0.016214347 -0.09711857 -0.06640556 -0.05224095 0.043666117
-0.06091686 -0.019046977 3.961473e-06 -0.035347935 -0.08946247 -0.008709901 0.00029283518 0.020305939
-0.060090337 0.016900491 -0.0087076165 -0.06535902 -0.01741648 -0.012541564 -0.040974952 -0.049168594
-0.06453704 -0.016812822 -0.04686589 0.046500985 -0.016029967 0.0034671624 -0.045211457 -0.031082267
-0.020478174 0.032786977 0.06448361 -0.087787256 -0.05954067 -0.049682744 -0.04907739 0.032452535
0.025216766 -0.024071122 -0.021503063 -0.055229895 0.0064613833 -0.080811314 -0.026735889 0.023784153
00000000: 693e 87bd 81c4 f9bc fe1f 98bd b10c ccbb
00000010: 6241 6dbd 8066 0dbd 9810 04bd f93a dd3c
00000020: b532 dfbc 078e 6fbd 6c87 76bd 16e1 85bd
00000030: 8842 2fbd 8447 843c a792 61bd 2883 59bd
00000040: e1c5 9e3c a33f 1d3c 4438 4cbd e48d 05bd
00000050: 7552 5cbd bb6e 643d 134b 7cbd d218 35bd
00000060: e3e4 3dbc 4abe 09bc 50d7 f0bb 9233 21bd
00000070: feef f7bc 5252 5b3c 508e ef3c 5d1b 4d3b
00000080: 18c9 70bd 0107 0abc 53bb 21bd 6ceb abbd
00000090: d287 c3bb 9dd5 d8bc 1f39 0fbd 1c7a 223d
000000a0: e309 2bbd 462c 973d 26b6 a33c c83d 7cbc
000000b0: cee7 303d c8ce b7bc c949 4dbd 0f29 6cbc
000000c0: 34c9 4cbb 6990 f83b 1cc0 95bd 947a 92bc
000000d0: 7739 71bd ef60 95bd dd3d b4bb 2d25 8cba
000000e0: fe0f 8e3c 7f84 9abc 0991 173c f454 f23c
000000f0: 0566 8dbd b1ed b3bc cfe4 40bc 2c14 9cbd
00000100: 0f1f 3f3c 704f ddbb 5280 d2bc e316 a3bd
00000110: fead 1bbc 57b4 53bd dc81 1c3c 18e1 c6bc
00000120: 42da fc3c f420 72bd 206d f6bc ef3c 3dbd
00000130: a5db 6dbd 7e36 15bd 38ee 12bd eac1 3abd
00000140: 7448 bebd 5d27 4bbd 12e8 abbd c440 91bd
00000150: 0750 a63c ef3c 223d daf8 aabc 4798 9fbb
00000160: 9a94 8cbc 919e 17bc 7358 a43c 9f05 c4bc
00000170: c267 f13b 4930 9abd 6ebc cebd 11c0 4cbd
00000180: c4c9 693c dfef 1c3d 4929 bb3c 0b0f 17bd
00000190: b369 b6bc 5f0d 51bd f5af 42bd 7f76 17bc
000001a0: 52c7 f4bc 5d88 5d3d eb73 e6bd 8e86 31bd
000001b0: d169 d63c cbbf 763c df53 9fbd 08a9 86bd
000001c0: ef4b a8bd 4999 8a3c 26af 0abd accd c8bd
000001d0: f9c8 72bd 2718 c9bc 3aaf d5bd 36ef 8ebc
000001e0: 1c09 54bd 43df 68bd 3eee 8bbd 618b acbd
000001f0: a4ea 863d 9145 3abd 2c1c 073c 7410 54bd
00000200: 7e37 c5bc 2ac4 26bd 813b 05bd d838 14bd
00000210: afbf 2fbd 7dd3 b8bd bc79 a9bd d246 cdbd
00000220: 0cca c9bd 843e 3abd b844 98bd feea b6bd
00000230: 957b b93d a8fc 283c 8603 35bd 8042 6abb
00000240: 21eb 84bc 4cad f1bb e436 86bd cf58 c93c
00000250: 44e8 63bb fbe2 93bc 3cfe f23a b9fe c0bd
00000260: 6a8e b43b b5de 0dbd fead 80bd 9412 9c3c
00000270: 2319 21bd 3fee 5e3c ff86 9d3b d4b1 d83c
00000280: 6a20 b9bc 4f7d 82bd d883 6abc be47 3ebd
00000290: 9770 12bd ae0e 2cbd a3cc 24bd 6105 66bd
000002a0: 6bc5 9abd 5d93 4dbd 63f6 c23c a563 673c
000002b0: 9ff5 b7bc cf2c 10bd 2023 46bd f562 7f3a
000002c0: 917b b1bc 8706 39bd 1b1a bbbb 731b 84bc
000002d0: c923 6abd ad22 633c 46b0 2dbd 5fbf 91bd
000002e0: fd67 b4bd b58e 64bd 4c0c 2d3d 4396 ccbb
000002f0: bf02 a6bc 1767 99bd 08e1 e6bc 2248 723c
00000300: 3a16 cebc de6e fc3c 7b79 62bd 1a0f 4b3d
00000310: 58f1 d63c fd82 39bd 81bc 893c ac4f 55bd
00000320: 5b32 04bd 5b6f 6f3c dfe8 c4bc 2ea1 51bd
00000330: 697f 47bd 7510 b7bd b7bb 243b d816 2cbc
00000340: e81b 6cbc d966 413d 82b4 87bd f3d3 843c
00000350: 1ae6 c6bd a3ff 87bd 9bfa 55bd 3edb 323d
00000360: f583 79bd 6808 9cbc cbec 8436 ffc8 10bd
00000370: 1938 b7bd f9b3 0ebc ac87 9939 a458 a63c
00000380: 4921 76bd e672 8a3c 64aa 0ebc f3da 85bd
00000390: 02ad 8ebc 227b 4dbc 5ad5 27bd 0265 49bd
000003a0: ff2b 84bd 0bbb 89bc 73f6 3fbd d177 3e3d
000003b0: 4751 83bc 5539 633b a62f 39bd 3da0 febc
000003c0: d8c1 a7bc a34b 063d fc0f 843d cec9 b3bd
000003d0: ebe0 73bd 2280 4bbd 6005 49bd f3ec 043d
000003e0: 6493 ce3c cd30 c5bc 3127 b0bc be38 62bd
000003f0: 03ba d33b 6780 a5bd 3905 dbbc fcd6 c23c

linear3.weight f4 [3, 256]
-0.03704815 -0.012159264 0.022495141 0.04972893 -0.055026863 -0.0180093 0.03643969 0.008723967
0.018401688 -0.032343302 0.03072226 -0.060201548 -0.017818289 -0.020237343 -0.017792884 0.05323185
-0.040533382 -0.002413392 -0.05319085 -0.020949215 -0.05219835 -0.0030448714 0.049623515 -0.01077909
0.004302796 -0.037951004 -0.0080506615 0.005888436 0.0009750309 0.01756349 -0.056218497 0.020768305
-0.0068075666 -0.01859051 -0.010147788 -0.053787462 0.0069204518 0.01901748 0.017257411 0.043778293
-0.023272095 0.007903124 -0.011754877 0.016038222 0.026222926 -0.0076579396 -0.050441463 -0.056377746
0.003381576 -0.009725531 0.05980388 0.0049868748 -0.013519714 -0.02545783 -0.0015819274 -0.0129032405
-0.0038502673 0.06255436 -0.014288488 -0.058133177 -0.022582643 -0.034034505 0.04784032 0.04768505
0.0101423375 0.0071693696 0.012064722 -0.049268868 -0.06784007 0.054034844 0.04696862 -0.02162358
-0.057901517 0.044100747 0.023128724 0.047638442 -0.037838444 -0.05077003 0.033171084 -0.0049002287
0.030180568 0.029023273 -0.005606535 -0.0049693673 0.0061626164 0.006621976 -0.011537276 -0.017505368
0.031786196 -0.0133767435 0.008252264 -0.02968779 -0.014228348 -0.015483507 -0.00071349373 -0.050687067
-0.038967863 0.020612074 0.03493701 -0.001946712 -0.0049309554 0.033251062 0.033763282 -0.029296186
0.027347606 -0.029903099 -0.052735236 -0.0030436285 0.020390473 0.019706829 0.0020235428 -0.057252187
-0.0022685453 0.030502068 -0.043210566 -0.014228539 -0.011360242 -0.007584595 -0.055627488 -0.048136286
0.009414345 0.023162425 -0.05843585 -0.059193272 0.031111812 0.0459177 0.049680915 -0.053417493
-0.059598513 -0.02497144 0.025093846 -0.06750414 -0.018830178 -0.042046532 -0.031961557 -0.048487548
0.003602047 0.0070368974 0.01180169 -0.05419708 0.027343648 -0.025388768 -0.012163136 -0.05213029
-0.041536056 -0.0316573 -0.055440824 -0.06184312 -0.018410617 0.023479499 -0.0034929344 -0.036536008
0.04755327 -0.024319636 -0.0023502354 0.00026261222 0.061769083 0.047342964 0.0144792665 -0.013923712
-0.031731203 -0.04031378 -0.0058972165 0.03696935 -0.046608925 -0.008654178 -0.0039312514 0.057516158
0.0067205154 -0.027207399 0.001159395 -0.01538495 0.08225931 -0.008442701 -0.021638438 -0.016201016
0.047079094 -0.0046846303 -0.0012997611 -0.014211337 -0.043513034 0.015069794 0.0039137527 -0.009737881
-0.06012545 -0.009661803 0.06359388 0.005731392 -0.062683836 0.011388465 -0.008202654 -0.046168476
0.0071843965 -0.011013262 -0.0128855035 -0.04208488 0.009184145 -0.032495487 -0.0044538453 -0.0065936255
0.02957303 -0.009446805 -0.04248441 -0.010340041 -0.031192595 0.017015116 0.03887268 0.035980012
-0.045671955 -0.027284225 -0.035770714 -0.009699935 -0.050938807 -0.05218746 -0.034120742 0.021608613
-0.024998358 0.0059566344 -0.025609946 -0.02262503 -0.053689286 -0.0035208222 0.0111736655 0.025213135
0.042784117 -0.030394012 0.029385407 -0.016807126 0.012644062 0.014403907 -0.051518887 0.007039204
0.0009168312 -0.0218089 0.012457865 0.019099453 0.004175775 -0.009573743 -0.028898701 -0.019784154
-0.008224301 -0.0063691423 0.04450711 -0.027569827 0.014219795 0.032206416 -0.05069817 0.012077362
0.037489153 -0.016901148 0.005980017 -0.0093369335 0.0018186878 -0.031465642 -0.007593701 -0.05473209
00000000: cdbf 17bd a637 47bc bb47 b83c 90b0 4b3d
00000010: d963 61bd 3d88 93bc c941 153d f8ee 0e3c
00000020: 23bf 963c 697a 04bd 40ad fb3c e695 76bd
00000030: a9f7 91bc c9c8 a5bc 62c2 91bc a409 5a3d
00000040: 5506 26bd 002a 1ebb a6de 59bd b09d abbc
00000050: f0cd 55bd 778c 47bb 0742 4b3d c89a 30bc
00000060: 78fe 8c3b 8372 1bbd ece6 03bc c8f3 c03b
00000070: 3799 7f3a 4fe1 8f3c 5e45 66bd 4b22 aa3c
00000080: 0212 dfbb 204b 98bc e842 26bc 3e50 5cbd
00000090: f5c4 e23b 8cca 9b3c 6a5f 8d3c de50 333d
000000a0: 1fa5 bebc 1b7c 013c 8797 40bc 9762 833c
000000b0: 76d1 d63c 74ef fabb b59b 4ebd 5aec 66bd
000000c0: 6e9d 5d3b d557 1fbc eaf4 743d f068 a33b
000000d0: ca81 5dbc f08c d0bc ad58 cfba 1d68 53bc
000000e0: c454 7cbb 801c 803d 431a 6abc 0e1d 6ebd
000000f0: 3cff b8bc c467 0bbd 36f4 433d 6651 433d
00000100: 0c2c 263c 08ed ea3b 1dab 453c 27ce 49bd
00000110: bcef 8abd a453 5d3d 2b62 403d ef23 b1bc
00000120: 242a 6dbd fca2 343d 7378 bd3c 8720 433d
00000130: 7cfc 1abd 3cf4 4fbd 67de 073d 1992 a0bb
00000140: 3d3d f73c 37c2 ed3c 06b7 b7bb 13d6 a2bb
00000150: c6ef c93b 29fd d83b d806 3dbc 6b67 8fbc
00000160: 3e32 023d 212a 5bbc 8134 073c cf33 f3bc
00000170: 041e 69bc 89ae 7dbc c109 3bba 3e9d 4fbd
00000180: c49c 1fbd a7da a83c 1c1a 0f3d d128 ffba
00000190: da93 a1bb 4432 083d 5e4b 0a3d 8efe efbc
000001a0: 1608 e03c 58f7 f4bc e700 58bd 9d77 47bb
000001b0: ec09 a73c 3770 a13c 6a9d 043b 4581 6abd
000001c0: e0ab 14bb 79df f93c 90fd 30bd d11e 69bc
000001d0: 4f20 3abc 3288 f8bb a6d9 63bd 8e2a 45bd
000001e0: a03e 1a3c 20bf bd3c 6e5a 6fbd a574 72bd
000001f0: 33de fe3c 3314 3c3d 377e 4b3d 4dcc 5abd
00000200: 921d 74bd e890 ccbc 9c91 cd3c 9c3f 8abd
00000210: bf41 9abc fc38 2cbd 1fea 02bd e19a 46bd
00000220: 5210 6c3b c695 e63b e05b 413c c2fd 5dbd
00000230: c9ff df3c 1bfc cfbc e447 47bc 9286 55bd
00000240: b621 2abd 16ab 01bd eb15 63bd 364f 7dbd
00000250: ddd1 96bc 1458 c03c b7e9 64bb c8a6 15bd
00000260: 38c7 423d f939 c7bc 6806 1abb 37af 8939
00000270: 9401 7d3d b2ea 413d 723a 6d3c 4820 64bc
00000280: 94f8 01bd 1020 25bd 703d c1bb 2c6d 173d
00000290: 00e9 3ebd 41ca 0dbc bad1 80bb 1096 6b3d
000002a0: c537 dc3b 0de2 debc d7f6 973a 2811 7cbc
000002b0: 9277 a83d 4153 0abc 1843 b1bc feb7 84bc
000002c0: 02d6 403d 8781 99bb bf5c aaba abd6 68bc
000002d0: b93a 32bd 4ce7 763c f03e 803b a28b 1fbc
000002e0: 1b46 76bd 8a4c 1ebc 823d 823d 67ce bb3b
000002f0: 6260 80bd af96 3a3c 6d64 06bc 281b 3dbd
00000300: 166b eb3b f870 34bc b81d 53bc 3261 2cbd
00000310: 1979 163c fd19 05bd 90f1 91bb 570f d8bb
00000320: 2443 f23c c6c6 1abc 2204 2ebd 4669 29bc
00000330: 9d87 ffbc 4963 8b3c f638 1f3d c75f 133d
00000340: 8412 3bbd 2b83 dfbc 5084 12bd 7aec 1ebc
00000350: 36a5 50bd 85c2 55bd 31c2 0bbd 8c04 b13c
00000360: 5bc9 ccbc df2f c33b f3cb d1bc 2058 b9bc
00000370: 4ce9 5bbd 98bd 66bb c011 373c c78b ce3c
00000380: 663e 2f3d ddfc f8bc aab9 f03c 19af 89bc
00000390: 0a29 4f3c 5dfe 6b3c 7805 53bd 1fa9 e63b
000003a0: 8057 703a 94a8 b2bc 131c 4c3c 7576 9c3c
000003b0: f1d4 883b 30db 1cbc f8bc ecbc 6112 a2bc
000003c0: 38bf 06bc 3db4 d0bb 164d 363d 1eda e1bc
000003d0: 25fa 683c e0ea 033d e2a8 4fbd 21e0 453c
000003e0: 3a8e 193d 4774 8abc 05f4 c33b f0f9 18bc
000003f0: 0961 ee3a 1ee2 00bd 95d4 f8bb c22e 60bd

linear3.bias f4 [3]
-0.0011821917 0.0015138956 0.0017877435
00000000: c5f3 9aba e86d c63a b852 ea3a
