model/model.pth (torch, 278772 bytes, 6 tensors)

linear1.weight f4 [256, 9]
0	0x3cb21a35	0.021741012
1	0x3e928913	0.28620204
2	0xbe9e0e79	-0.30870417
3	0xbe47d7ac	-0.19515866
4	0x3e595c36	0.21226582
5	0x3e409fc5	0.18810947
6	0x3da5a9c3	0.0808902
7	0xbe6154a6	-0.22004947
8	0x3dc9f135	0.0986046
9	0xbe8fb108	-0.28064752
10	0xbdc48a56	-0.09596698
11	0x3e0ec086	0.1394063
12	0x3d1b7836	0.03795644
13	0xbda14a00	-0.078754425
14	0xbe9e7d5f	-0.30955026
15	0x3d830ecb	0.06399306
16	0xbe71f938	-0.23630226
17	0xbdff27b6	-0.12458746
18	0x3d892e78	0.06698316
19	0x3e2fbc09	0.17161573
20	0xbcb7a03f	-0.022415278
21	0x3e1547f6	0.14578232
22	0xbeb6049c	-0.35550392
23	0x3dc0a112	0.09405722
24	0xbc753a53	-0.014967519
25	0xbe467925	-0.1938215
26	0xbdfd52d6	-0.12369315
27	0x3e0e0b1c	0.13871425
28	0x3eb998c8	0.36249375
29	0xbe00e545	-0.1258746
30	0x3d99195b	0.07475539
31	0x3e635ed4	0.22204143
32	0xbcbdabe6	-0.023153257
33	0xbbdae819	-0.0066805
34	0x3e299290	0.16559815
35	0x3e1fd1ff	0.15607451
36	0x3e430943	0.19046502
37	0xbec96166	-0.39332122
38	0xbebc88d8	-0.36823153
39	0x3e8b3f9c	0.27196968
40	0x3e7a0967	0.24417649
41	0xbe4de577	-0.20107065
42	0x3d346cae	0.044048958
43	0xbe37e0e7	-0.17956887
44	0x3e03ab66	0.12858352
45	0xbe4384b0	-0.19093585
46	0xbc5b48d5	-0.013384064
47	0xbe4ea949	-0.20181765
48	0xbebda720	-0.3704157
49	0x3c842666	0.016131591
50	0xbce0fbb7	-0.027463777
51	0x3cefbbc1	0.029264333
52	0x3df7c8c1	0.12098838
53	0xbdfdd76b	-0.12394603
54	0xbc7404df	-0.0148937395
55	0xbed7be9d	-0.42137614
56	0x3e0f9234	0.14020616
57	0x3e867ec7	0.26268598
58	0x3e2fec01	0.17179872
59	0xbe859385	-0.2608911
60	0x3e01f6bb	0.12691776
61	0x3ecb141f	0.3966379
62	0x3e41f250	0.18940091
63	0xbea5ce5e	-0.32384008
64	0xbda8532b	-0.08218988
65	0xbe57c3b0	-0.21070743
66	0xbe528d3e	-0.20561692
67	0x3e5069ab	0.20352809
68	0xbe29a9a3	-0.16568618
69	0xbe258abb	-0.16166203
70	0xbe8f74c2	-0.28018767
71	0x3e3fbc88	0.18724263
72	0x3e63a962	0.22232583
73	0x3e4921c5	0.19641788
74	0x3dcd9dac	0.10039839
75	0x3db6f349	0.08933122
76	0x3e7b9609	0.24568953
77	0xbecc2df7	-0.39878818
78	0xbe2d3eb3	-0.16918449
79	0x3e1901c7	0.14942084
80	0x3c967540	0.018366456
81	0xbe66c80a	-0.22537246
82	0xbeb22298	-0.34792018
83	0xbea136c8	-0.31487107
84	0xbca4be30	-0.02011022
85	0xbe717d35	-0.23582919
86	0x3e5b5462	0.21418908
87	0x3c035573	0.008015978
88	0xbd131ea0	-0.03591788
89	0xbeb4b49e	-0.3529405
90	0x3cdbfb64	0.02685327
91	0xbd9d3c01	-0.076774605
92	0xbe7e92d2	-0.24860695
93	0x3d8659bb	0.065600835
94	0x3e947f6a	0.2900346
95	0x3d2b07fd	0.041755665
96	0x3e68383d	0.22677703
97	0x3e685eda	0.22692433
98	0xbe88ef74	-0.26745188
99	0xbe064695	-0.13112862
100	0xbe9ddcd0	-0.3083253
101	0x3db89f6c	0.09014782
102	0x3cc8b323	0.024499482
103	0x3e54beab	0.20775859
104	0xbeec647d	-0.46170416
105	0xbdafe45e	-0.085884795
106	0xbdee4b58	-0.116354644
107	0x3e889530	0.2667632
108	0x3e45c57d	0.19313617
109	0x3ea7773d	0.3270816
110	0xbdf7092c	-0.12062296
111	0x3d9020fd	0.07037542
112	0x3e669e16	0.22521242
113	0xbe076e94	-0.13225776
114	0xbd5f42e1	-0.05450714
115	0xbe93f477	-0.2889745
116	0xbe513a4f	-0.20432399
117	0x3ba05038	0.0048923753
118	0xbde5bc8c	-0.11217603
119	0xbdefabae	-0.11702667
120	0x3eb4cd23	0.35312757
121	0x3e2da381	0.16956903
122	0x3db1bf36	0.08679049
123	0x3de75fc7	0.11297565
124	0xbe260c66	-0.16215667
125	0x3d6afd48	0.057370454
126	0x3e9f06e7	0.31059954
127	0xbcf2677e	-0.029590365
128	0xbda0f7ee	-0.07859789
129	0xbe883660	-0.26603985
130	0x3e049c4f	0.12950252
131	0x3e762391	0.24037005
132	0x3e81c95a	0.25348932
133	0x3db33016	0.08749406
134	0x3d09e0f1	0.033661786
135	0xbdb3b0ac	-0.08773932
136	0x3e7e50f8	0.24835575
137	0xbe98add1	-0.2982011
138	0x3e6ded65	0.2323509
139	0xbe8226fb	-0.25420365
140	0x3dc595dc	0.09647724
141	0xbea42e9e	-0.32066816
142	0x3e498e26	0.19683132
143	0x3e810372	0.2519794
144	0x3e374d95	0.17900689
145	0x3e084521	0.1330762
146	0x3e64b697	0.22335277
147	0x3e743144	0.23846918
148	0xbd9be5a8	-0.07612163
149	0x3e2d0e07	0.16899882
150	0xbea893a4	-0.3292514
151	0xbe5447ff	-0.2073059
152	0xbe9d9bc7	-0.3078291
153	0xbe0a7780	-0.13522148
154	0x3e93e2fa	0.28884107
155	0x3d2757bf	0.040855166
156	0xbeb68fc8	-0.3565657
157	0x3e273cac	0.16331738
158	0x3e85174f	0.25994346
159	0xbd7cae36	-0.061689578
160	0x3e555479	0.20833005
161	0xbe99f9ed	-0.3007349
162	0xbe227a38	-0.15866935
163	0x3e73ad55	0.2379659
164	0xbe24795f	-0.16061924
165	0xbd9a1ab6	-0.07524626
166	0xbd245b75	-0.040126283
167	0xbeb1860f	-0.3467259
168	0xbcf8dd6e	-0.030379023
169	0xbd585e36	-0.05282422
170	0xbeae0d88	-0.339947
171	0xbe7c95da	-0.24666539
172	0x3e8cb5be	0.27482408
173	0x3e1d0eb3	0.15337639
174	0x3ec02960	0.37531567
175	0x3e532758	0.20620477
176	0x3e1c9347	0.15290557
177	0x3da3f042	0.0800481
178	0x3ef68615	0.4814917
179	0x3e7777f9	0.2416686
180	0x3e1737cd	0.1476738
181	0x3e991277	0.298969
182	0xbd8a2570	-0.06745422
183	0xbce96717	-0.02849154
184	0x3cb15b67	0.02165003
185	0xbd8b7c7a	-0.068108514
186	0x3e533bc9	0.20628275
187	0xbd8a2d51	-0.06746925
188	0xbe392fc7	-0.18084632
189	0x3ee7c5e4	0.45268166
190	0xbe345956	-0.17612204
191	0x3ea30dce	0.3184647
192	0x3dafc0b5	0.08581678
193	0xbd386093	-0.045013975
194	0x3da2e9dd	0.07954762
195	0xbe24ebc4	-0.16105562
196	0xbdbd0b5b	-0.092306815
197	0xbec2a81e	-0.38018888
198	0xbeb98359	-0.36233023
199	0xbdd37083	-0.10324194
200	0x3e056100	0.13025284
201	0xbce71598	-0.028208539
202	0xbe087951	-0.13327529
203	0xbe35422a	-0.17701021
204	0x3e8ec9e2	0.278884
205	0x3e5220ad	0.20520277
206	0x3d812dab	0.063075386
207	0x3e881789	0.26580456
208	0x3d9e14b4	0.077187926
209	0xbe82e2e3	-0.25563726
210	0x3e7d2861	0.24722435
211	0xbdd56a44	-0.10420659
212	0xbd29bf7a	-0.041442372
213	0xbe37c0a1	-0.17944576
214	0xbe9304c0	-0.2871456
215	0xbe379a62	-0.17929986
216	0x3d64e64e	0.0558837
217	0xbcc813f9	-0.024423586
218	0xbe3d45a1	-0.18483593
219	0xbeb04e1e	-0.344346
220	0xbe202020	-0.15637255
221	0xbde2bbec	-0.110709995
222	0x3bd477c6	0.0064840047
223	0x3de43e24	0.11144665
224	0x3e8e02d0	0.2773652
225	0x3e79131c	0.24323696
226	0xbebd108b	-0.36926684
227	0xbec4511d	-0.38343135
228	0xbdc826b2	-0.097730055
229	0x3e660788	0.2246381
230	0x3cb3dc18	0.021955535
231	0x3de5871e	0.11207412
232	0x3b643abc	0.0034825047
233	0xbea00112	-0.31250817
234	0xbe928377	-0.28615925
235	0xbed96187	-0.4245722
236	0xbecfb5a6	-0.40568274
237	0x3dd5e6b4	0.10444394
238	0xbd627f23	-0.05529703
239	0x3d5a1090	0.05323845
240	0x3d087419	0.033313844
241	0xbce585a6	-0.02801783
242	0xbd9fa786	-0.077956244
243	0xbd9d7e9e	-0.07690166
244	0x3d29a132	0.041413493
245	0xbd99f5da	-0.075175956
246	0xbe813383	-0.25234613
247	0xbdcd678b	-0.10029515
248	0xbe514a29	-0.20438446
249	0x3cc55d87	0.024092449
250	0x3db55fc5	0.08856157
251	0xbeaa296c	-0.33234727
252	0xbe9fe79e	-0.31231397
253	0xbd8f34cf	-0.06992494
254	0xbda6658e	-0.08124839
255	0x3dd3b49f	0.10337185

linear1.bias f4 [256]
0	0x3d66115d	0.056168903
1	0x3e8b076c	0.271541
2	0xbea325d1	-0.3186479
3	0x3dac7139	0.08420033
4	0x3e35d067	0.1775528
5	0x3e155148	0.14581788
6	0xbe2f74c3	-0.17134385
7	0xbcdbf480	-0.026849985
8	0xbe2d058c	-0.16896647
9	0x3e720697	0.23635326
10	0xbe0079f7	-0.12546526
11	0xbe324b47	-0.17411529
12	0xbc901883	-0.017589813
13	0xbcc41a50	-0.023938328
14	0x3e7647ea	0.2405087
15	0xbdd86252	-0.10565628
16	0xbe04920c	-0.12946337
17	0x3d8699b1	0.06572283
18	0x3d185689	0.0371919
19	0x3eb6e61a	0.3572243
20	0x3e3a80f2	0.18213251
21	0xbc8fccd0	-0.017553717
22	0x3d3fb49b	0.0468031
23	0x3dbb9d40	0.091608524
24	0xbd0e31a2	-0.034715302
25	0xbea94c23	-0.330659
26	0x3d8fcbf4	0.07021323
27	0xbd7a732c	-0.061144993
28	0x3e0918ce	0.13388368
29	0x3dffff15	0.12499825
30	0xbeb4e52a	-0.35331088
31	0x3e0157a4	0.12631088
32	0xbe41d6fa	-0.18929663
33	0xbe2e894e	-0.17044565
34	0x3e9803c3	0.2969037
35	0xbe918a22	-0.284257
36	0x3da4c83e	0.08046006
37	0xbe389e87	-0.18029223
38	0xbf035dd9	-0.51315075
39	0xbe331972	-0.17490175
40	0x3e53a277	0.20667444
41	0xbdfb6719	-0.12275524
42	0xbdf73d0a	-0.12072189
43	0xbdef30bc	-0.11679217
44	0xbd6df2a6	-0.058092736
45	0xbeaee810	-0.34161425
46	0x3e12158b	0.1426603
47	0xbe386f65	-0.18011244
48	0x3d0208f6	0.031746827
49	0x3dab8deb	0.08376678
50	0xbe993c40	-0.2992878
51	0xbe05d4ef	-0.13069509
52	0xbeaeae86	-0.34117526
53	0xbebd5226	-0.36976737
54	0x3e3bfdca	0.18358532
55	0xbed4356f	-0.41447017
56	0xbea5ff08	-0.32421136
57	0xbcdf0766	-0.027225208
58	0xbe0b5fd6	-0.13610777
59	0xbead6db3	-0.33872756
60	0xbdd1884c	-0.10231075
61	0xbead10bb	-0.33801827
62	0xbe534fcb	-0.20635907
63	0x3e801ffc	0.25024402
64	0x3e85b706	0.26116198
65	0xbe8b4070	-0.271976
66	0xbe76d59e	-0.24104926
67	0x3e47e6b1	0.19521596
68	0x3d9d25fe	0.07673262
69	0x3c8610fe	0.016365524
70	0xbc41e9ab	-0.011835496
71	0x3e414848	0.1887523
72	0x3e26c00c	0.16284198
73	0x3ebc6a7c	0.3679999
74	0x3ea30236	0.31837624
75	0xbeb710cd	-0.35755005
76	0x3c245d27	0.010031975
77	0x3cbc723d	0.023003692
78	0xbe5e7da2	-0.21727613
79	0xbde3599b	-0.11101075
80	0xbc270640	-0.010194361
81	0x3e3366bf	0.17519663
82	0xbdccc704	-0.09998897
83	0xbe09ff6d	-0.13476343
84	0xbe4662f5	-0.19373687
85	0x3e2b3a40	0.1672144
86	0x3e070bc3	0.1318808
87	0x3eaeff16	0.3417899
88	0xbddb694e	-0.10713445
89	0xbe62558a	-0.22102943
90	0xbea67300	-0.32509613
91	0xbe4c729e	-0.19965598
92	0x3eccf178	0.40027976
93	0x3cd0d122	0.025490347
94	0x3e20db04	0.15708548
95	0x3d02d6c2	0.03194309
96	0x3e696530	0.22792506
97	0xbd06d34e	-0.03291636
98	0xbd002e1f	-0.031293985
99	0x3e81bd9a	0.25339967
100	0xbeb24b48	-0.3482306
101	0x3e30bc9f	0.17259453
102	0x3cbde638	0.023181066
103	0xbe98136f	-0.29702327
104	0x3e771128	0.24127638
105	0x3cd696ef	0.026195018
106	0x3e3c30cb	0.18377988
107	0xbe37de29	-0.17955841
108	0xbdfed0cb	-0.12442168
109	0x3e8eda3a	0.2790087
110	0xbe060e6d	-0.1309144
111	0x3b9bd673	0.004755789
112	0xbe8a00b3	-0.26953658
113	0xbe8d7053	-0.2762476
114	0x3bc2b14a	0.0059415447
115	0x3d6aa208	0.05728343
116	0xbde809a8	-0.11329967
117	0x3d440f13	0.04786594
118	0xbd02faee	-0.031977586
119	0xbebbb159	-0.36658743
120	0x3e111f13	0.1417201
121	0xbe39ae62	-0.18132928
122	0xbe6b06e7	-0.22951852
123	0xbc4e9464	-0.012608621
124	0xbe56715f	-0.20941685
125	0xbe29c409	-0.16578688
126	0xbdf2e4a0	-0.11860013
127	0x3dc9cedf	0.09853911
128	0x3b86de92	0.004115888
129	0xbec6217b	-0.3869742
130	0xbe7af0a2	-0.24505857
131	0xbead5cdf	-0.33859918
132	0x3de2c179	0.11072058
133	0x3ce01b5d	0.027356798
134	0x3ebaf5bf	0.36515614
135	0xbecccfff	-0.40002438
136	0xbdf4c2ae	-0.11951195
137	0x3c9275ce	0.01787844
138	0xbe8a512b	-0.2701505
139	0xbe8381de	-0.25685018
140	0xbe300be9	-0.17192043
141	0x3e90007f	0.28125378
142	0x3d98a98d	0.07454214
143	0xbe99dc5c	-0.30050933
144	0x3e42c18a	0.19019142
145	0x3d1d7be0	0.038448215
146	0x3e4aa5d6	0.19789824
147	0xbe71f58c	-0.23628825
148	0xbe9fddcb	-0.31223902
149	0xbea952ca	-0.33070976
150	0xbde51fd7	-0.111877136
151	0xbe80b0a8	-0.25134778
152	0x3e07c360	0.13258123
153	0xbed3a5f7	-0.4133756
154	0x3e040ca3	0.12895446
155	0xbe9b9ff5	-0.30395475
156	0x3d7afa61	0.061273936
157	0xbe6c61a2	-0.23084119
158	0xbeaf988f	-0.3429608
159	0xbdf8b878	-0.121445596
160	0x3dc35f83	0.09539702
161	0xbe4bfa2e	-0.19919655
162	0xbe2b46e6	-0.16726264
163	0xbe09acfb	-0.13444893
164	0x3dabad2e	0.08382641
165	0x3e459e54	0.19298679
166	0x3d20abf9	0.039226506
167	0x3e32c50b	0.17457978
168	0x3ea46dd6	0.32115048
169	0xbe421f48	-0.18957245
170	0xbe7b5848	-0.24545395
171	0xbdd7a9a3	-0.105304025
172	0xbd110073	-0.03540082
173	0xbe85b956	-0.26117963
174	0xbe4911e4	-0.19635731
175	0x3e1f0155	0.15527852
176	0xbca40013	-0.020019567
177	0x3d3d08ce	0.046150975
178	0xbe9b04c8	-0.30277085
179	0x3d0f6d56	0.03501638
180	0xbea1b3e9	-0.31582573
181	0xbe0a8e64	-0.1353088
182	0xba0ab64e	-0.0005291448
183	0xbea99fae	-0.33129638
184	0x3e3d8566	0.18507919
185	0x3e1f414b	0.15552251
186	0xbe8d9408	-0.27652
187	0xbe437386	-0.19087037
188	0x3e255eb9	0.16149415
189	0xbeb85237	-0.36000225
190	0x3e56c4f8	0.20973575
191	0x3bb1ac00	0.0054221153
192	0xbe448122	-0.19189885
193	0xbe081a99	-0.13291396
194	0xbe6c95df	-0.23104046
195	0xbe4bd690	-0.19906068
196	0xbe8c9288	-0.27455544
197	0xbe7acfb6	-0.24493298
198	0xbddf1999	-0.10893554
199	0x3d3197b2	0.04335756
200	0x3e02c987	0.12772189
201	0xbe317ebe	-0.17333505
202	0xbd865600	-0.06559372
203	0x3e017892	0.1264365
204	0xbea42264	-0.32057488
205	0xbe9ef575	-0.31046644
206	0x3bbc61ab	0.0057489476
207	0xbe058eef	-0.13042806
208	0x3dab7039	0.08371014
209	0x3e48787b	0.1957721
210	0xbe919cf3	-0.28440055
211	0x3d7e5515	0.06209286
212	0xbe14c9d9	-0.14530124
213	0x3e00b619	0.12569465
214	0xbeaa8946	-0.33307856
215	0x3df7dd64	0.12102774
216	0xbeb4d779	-0.35320643
217	0xbe9d8727	-0.30767176
218	0xbcf15a9a	-0.029462148
219	0x3d881655	0.066448845
220	0x3e64e7ff	0.22354124
221	0xbeb16683	-0.34648523
222	0xbeb8e7dd	-0.36114398
223	0xbe7a5ef2	-0.24450281
224	0xbe901b83	-0.2814599
225	0xbea9c87d	-0.33160773
226	0xbeb3f65a	-0.3514889
227	0xbdb49236	-0.0881695
228	0x3d642a71	0.055704538
229	0x3ddfe333	0.10932007
230	0x3cd768a3	0.026295012
231	0x3e838145	0.25684562
232	0x3ceec5da	0.029147077
233	0x3e9ff2ab	0.31239828
234	0xbeb8b3d0	-0.36074686
235	0x3da25815	0.079269566
236	0xbe9a02b5	-0.3008019
237	0x3e965125	0.29358783
238	0xbde93d11	-0.113886006
239	0x3d186ec7	0.03721502
240	0xbe794b6f	-0.24345182
241	0xbe38eaa8	-0.18058264
242	0x3e8fa684	0.2805673
243	0x3e0117cc	0.12606734
244	0xbe21841f	-0.15773056
245	0x3defa560	0.11701465
246	0xbdcec01c	-0.10095236
247	0x3e5950cf	0.21222232
248	0x3d79e829	0.06101242
249	0xbeddc8be	-0.43317217
250	0x3c71fa39	0.01476913
251	0xbe5ff8db	-0.21872275
252	0x3db98a09	0.09059531
253	0x3e568307	0.2094842
254	0xbd37ff3f	-0.044921156
255	0xbe9c197b	-0.3048819

linear2.weight f4 [256, 256]
0	0xbd6aee8f	-0.057356413
1	0xbc44bfa8	-0.012008585
2	0xbcd50812	-0.026004825
3	0xbd562a7a	-0.052286603
4	0x3bd027cd	0.006352401
5	0xbb8e47c7	-0.0043420526
6	0xbd65a932	-0.05606956
7	0x3caf7100	0.021416187
8	0xbd6a2720	-0.05716622
9	0xbc28eb5a	-0.010310018
10	0x3d19b8ed	0.037529875
11	0xbd8a6e9b	-0.067593776
12	0x3d00fd54	0.031491593
13	0xbd060054	-0.032715157
14	0xbd3dc46f	-0.04632991
15	0x3cf7ab5f	0.030233083
16	0x3d12e181	0.03585959
17	0xbd86f8f5	-0.065904535
18	0xbd7252b1	-0.059160892
19	0xbd7b52f4	-0.061358407
20	0x3d54cf09	0.051955257
21	0xbd482880	-0.04886675
22	0xbd3ab838	-0.04558584
23	0x3cbfe94f	0.02342668
24	0xbc0610f9	-0.0081827575
25	0xbae18c6b	-0.0017207986
26	0xbd3ef472	-0.04661984
27	0x3c813b7a	0.015775431
28	0xbc21028b	-0.009827266
29	0x3d326bce	0.04355984
30	0xbbf340d0	-0.0074234977
31	0xbc94103d	-0.01807415
32	0x3c80ccca	0.015722651
33	0xbcc3fcfa	-0.02392434
34	0x3d45d5a6	0.048299454
35	0xbd030df1	-0.031995717
36	0x3cb8c4b1	0.022554727
37	0xbbb2b2e6	-0.0054534553
38	0x3d0f212d	0.03494375
39	0xbce080b8	-0.027405128
40	0xbcc57040	-0.024101377
41	0x3bd49341	0.0064872806
42	0x3d266161	0.04062021
43	0xbd0701b2	-0.0329606
44	0x3d343f76	0.044005834
45	0xbd3dc8a2	-0.046333916
46	0x3c9ee924	0.01939828
47	0xbd2f7886	-0.04283955
48	0x3c4ba2ae	0.012428923
49	0xbd249a2b	-0.04018609
50	0xbc97c94e	-0.018528607
51	0xbc3e35e3	-0.011609527
52	0x3d3deb0a	0.04636673
53	0x3d3e0853	0.046394657
54	0xbd55df5e	-0.052214973
55	0xbd03d60a	-0.032186545
56	0x3d363e1c	0.044492826
57	0xbc0efc45	-0.008727138
58	0xbcb6dcc4	-0.022322066
59	0xbcef933d	-0.029245013
60	0x3cf91798	0.030406758
61	0xbd2d4cd5	-0.0423096
62	0xbc7aec2c	-0.015315097
63	0xbc0c8a38	-0.008577876
64	0xbd25436c	-0.0403475
65	0x3b319be0	0.0027100965
66	0xbcfc57d1	-0.030803593
67	0xbccb58a3	-0.024822539
68	0xbd248a98	-0.040171236
69	0xbba08afb	-0.0048993803
70	0x3d6c13c2	0.05763603
71	0x3d0d16ad	0.034445453
72	0x3c022c10	0.007945076
73	0xbb49f1ae	-0.0030814218
74	0xbd22c574	-0.039739087
75	0x3d066de8	0.03281966
76	0xbcf70ccc	-0.03015747
77	0xbc5ecdcd	-0.013598871
78	0x3d21a08b	0.039459746
79	0xbc7a80f8	-0.015289538
80	0xbc96bf64	-0.018401809
81	0x3cc65a80	0.024213076
82	0xbd59c4e2	-0.053166278
83	0x3b09226a	0.0020925053
84	0x3c36712d	0.011135382
85	0xbd4d0024	-0.050048962
86	0x3c8dea9f	0.01732379
87	0x3d30e4c8	0.043186933
88	0x3c8b9638	0.017039403
89	0xbd2da8c4	-0.042397276
90	0x3c8355ce	0.016032126
91	0x3c4f5f47	0.012656993
92	0xbd815ec4	-0.06316903
93	0xbccd7460	-0.025079906
94	0xbc9308ec	-0.01794859
95	0x3d353140	0.04423642
96	0x3d45c1f0	0.048280656
97	0xbd14e478	-0.036350697
98	0xbd4249bc	-0.0474336
99	0xbcbbaf41	-0.022910716
100	0xbd371e8a	-0.04470686
101	0xbd29ce3f	-0.041456457
102	0x3ce4d19a	0.027931977
103	0xba6ceba1	-0.0009037797
104	0xbd5c35bc	-0.053762183
105	0x3cb15ce7	0.021650745
106	0x3d34dcda	0.044155933
107	0xbd0ec30b	-0.034853976
108	0x3a9cd1d5	0.001196439
109	0xbc11645a	-0.008874023
110	0xbd614e46	-0.055006288
111	0x3d31dbd9	0.043422554
112	0x3ce5fef6	0.028075676
113	0x3d05d300	0.03267193
114	0xbd414310	-0.047183096
115	0x3c79b578	0.015241019
116	0xbd6c5af8	-0.057703942
117	0x3d257435	0.040394027
118	0xbd75ff7f	-0.060058113
119	0x3d41c33d	0.047305334
120	0xbd03d721	-0.032187585
121	0xbd102059	-0.0351871
122	0x3d2ced0c	0.042218253
123	0x3d23d69d	0.039999593
124	0x3cd456fb	0.025920382
125	0xbc0f4693	-0.008744854
126	0xbd0f77b8	-0.035026282
127	0xbd7c10e0	-0.06153953
128	0xbc9f09cf	-0.019413857
129	0xbd255a88	-0.04036954
130	0xbd0665c2	-0.032811888
131	0xbcdacf90	-0.026710302
132	0xbd65d6fa	-0.05611322
133	0x3c8ec89a	0.017429639
134	0x3d1427ef	0.036170896
135	0x3ca7657a	0.02043413
136	0x3a91b6bd	0.0011117082
137	0xbd24a364	-0.040194884
138	0x3d1a929e	0.03773748
139	0x3cc8b394	0.024499692
140	0x3ce689ea	0.028141934
141	0x3d529e26	0.051420353
142	0x3d07d07a	0.033157803
143	0xbca25aa4	-0.019818611
144	0x3d178e66	0.037001036
145	0xbd6887b6	-0.05677005
146	0xbd9f8ad5	-0.07790152
147	0x3c81829c	0.01580935
148	0xbd8334da	-0.06406565
149	0xbbeacd06	-0.007165554
150	0xbd73643b	-0.05942176
151	0xbd70db52	-0.05880291
152	0x3ba7ee10	0.005124815
153	0xbc8589c0	-0.016301036
154	0xbd5bbb06	-0.053645156
155	0xbd30aa6a	-0.04313127
156	0x3c98b51c	0.018641047
157	0xbcf97182	-0.030449633
158	0x3ceb816f	0.028748242
159	0x3d5bb4a4	0.05363907
160	0xbd182554	-0.037144974
161	0xbb3be4e0	-0.0028670356
162	0xbca2705d	-0.01982897
163	0xbd42429c	-0.047426805
164	0xbc360843	-0.011110368
165	0x3aae2e91	0.0013289024
166	0xbc375053	-0.011188584
167	0xbc2b1ecc	-0.010444354
168	0x3d045e7a	0.032316662
169	0xbce3f224	-0.027825423
170	0x3c495507	0.0122883385
171	0x3d07f22c	0.033189937
172	0xbd76ab80	-0.06022215
173	0x3d609b28	0.05483547
174	0x3d3f9d35	0.046780784
175	0x3d6c9b5f	0.05776536
176	0xbd24b8a9	-0.04021517
177	0xbc9ab7fe	-0.018886562
178	0xbd80bf54	-0.06286493
179	0x3c949d8d	0.018141532
180	0x3c09bb7d	0.008406517
181	0xbd91cce5	-0.07119159
182	0xbace2431	-0.0015727339
183	0x3cb43135	0.02199612
184	0x3d305312	0.043047972
185	0xbd74d21d	-0.059770692
186	0x3cd3129b	0.025765708
187	0xbc872905	-0.016499052
188	0x3c97c61b	0.018527081
189	0xbd65f2e8	-0.056139857
190	0xbb28bec8	-0.002574848
191	0x3d3a93ba	0.04555104
192	0x3ccb96a8	0.024852112
193	0x3d69767e	0.05699777
194	0xbcf8e158	-0.03038089
195	0xbd62cbd4	-0.055370167
196	0xbd1d9592	-0.03847272
197	0x3d57096b	0.052499216
198	0xbd5fbb72	-0.05462212
199	0xbd09efc7	-0.033675935
200	0xbbf074ab	-0.0073381267
201	0x3cc4fe80	0.024047136
202	0xbbb9fc30	-0.005675815
203	0xbb7ab8a9	-0.0038257039
204	0xbb1827d4	-0.0023217099
205	0x3d5fc802	0.0546341
206	0xbd6f9f60	-0.0585016
207	0x3d3d6abe	0.046244375
208	0x3ca93c3b	0.020658603
209	0x3c775bd7	0.01509758
210	0x3cd799fb	0.02631854
211	0x3c92ac0c	0.017904304
212	0xbcc66fd6	-0.02422325
213	0xbbba4061	-0.005683944
214	0xbd462f3e	-0.048384897
215	0xbb647841	-0.0034861716
216	0x3bf948ec	0.00760757
217	0x3d1ded82	0.038556583
218	0x3d368690	0.044561923
219	0xbc52e84f	-0.0128727695
220	0x3cbd30c3	0.02309454
221	0xbc99ed10	-0.018789798
222	0x3cda487f	0.026645897
223	0x3cb6d94c	0.022320412
224	0x3cceff24	0.025268145
225	0xbbb375c1	-0.005476684
226	0x3cb2fc9c	0.02184897
227	0xbccddcab	-0.025129637
228	0xbd008e8c	-0.031385943
229	0x3d6c8753	0.057746243
230	0xbc48be1a	-0.012252355
231	0xbd2c8029	-0.04211441
232	0xbd494c8c	-0.049145266
233	0x3da0cd6b	0.0785168
234	0xbc82ee52	-0.01598278
235	0xb9de0d0c	-0.0004235286
236	0xbd6632d8	-0.056200832
237	0xbc2f8202	-0.010712149
238	0x3d61d4e8	0.055134684
239	0xbd3f3e8c	-0.04669051
240	0xbd2fe5fc	-0.04294394
241	0x3b19f0e6	0.0023489534
242	0x3d02c29e	0.031923883
243	0xbca7d6e4	-0.02048821
244	0xbcce3181	-0.02517009
245	0xbd9041da	-0.0704381
246	0x3b418487	0.0029528455
247	0xba84a5f6	-0.0010120261
248	0xbdb558b2	-0.08854808
249	0x3b16fb4a	0.0023037964
250	0xbd95e6ae	-0.07319389
251	0x3d802f0d	0.06258974
252	0xbd23c512	-0.039982863
253	0xbd034a74	-0.032053426
254	0xbd7040d0	-0.05865556
255	0xbe0090d1	-0.12555243

linear2.bias f4 [256]
0	0xbd3400e4	-0.043946162
1	0xbc28430f	-0.010269894
2	0x3c54a16b	0.012977938
3	0x3cc94507	0.024569048
4	0xbba66560	-0.005078003
5	0x3bc75b36	0.0060838712
6	0x3c2282a2	0.009918841
7	0x3ce3cbee	0.027807202
8	0x3cd6bc37	0.026212795
9	0xbd752cf0	-0.05985731
10	0x3c453c3d	0.012038288
11	0xbaeb7a66	-0.0017965555
12	0x3d286dba	0.04112027
13	0x3cada855	0.021198431
14	0x3cccab34	0.02498398
15	0xbd26e86f	-0.04074901
16	0xbcb1e240	-0.02171433
17	0x3c846d2f	0.016165344
18	0x3c07b702	0.008283379
19	0x3d61d5e4	0.055135623
20	0x3d33d679	0.04390571
21	0xbc8cca24	-0.017186232
22	0xbd9757cf	-0.07389795
23	0x3d0a1237	0.033708777
24	0xbcd5724b	-0.026055476
25	0xbd230dcc	-0.03980808
26	0xbd7ef4b2	-0.06224508
27	0xbd73b9f9	-0.05950353
28	0xbda6738f	-0.0812751
29	0xbc7a7e20	-0.01528886
30	0xbcfb6ae9	-0.030690627
31	0xbd718c4d	-0.058971692
32	0xbd519264	-0.051165
33	0xbd806ecb	-0.06271132
34	0xbc2a61ad	-0.010399264
35	0x3be357b0	0.0069379434
36	0xbd1c54c0	-0.03816676
37	0xbc5d53d0	-0.013508752
38	0xbc2e91f4	-0.010654915
39	0xbdb38da3	-0.087672494
40	0xbd397e31	-0.04528636
41	0x3c4665cf	0.012109234
42	0xbd78bf1e	-0.06072914
43	0xbce0787c	-0.027401201
44	0xbc331e8e	-0.010932578
45	0x3d2bd226	0.04194846
46	0xbda152ae	-0.07877098
47	0x3c6ab5a3	0.014325532
48	0xbbeabb2b	-0.0071634254
49	0xbdbeb08f	-0.0931102
50	0x3ce38f77	0.02777837
51	0x3c1bb71c	0.009504106
52	0xbce63f78	-0.028106436
53	0xbd0f49f7	-0.034982648
54	0xbd627f46	-0.05529716
55	0x3cfdc5a6	0.030978035
56	0x3c251a27	0.010077036
57	0x3c6022be	0.013680158
58	0x3d49b4d3	0.049244713
59	0xbd18b7b5	-0.03728457
60	0x3d5c8e4a	0.053846635
61	0xbbca84c0	-0.006180376
62	0xbd212ac8	-0.03934744
63	0xbd2a7892	-0.04161889
64	0xbdba6f04	-0.09103206
65	0xbb733ea8	-0.0037116203
66	0xbdc7615b	-0.09735366
67	0xbc49275e	-0.012277452
68	0xbd6f592f	-0.05843466
69	0xbda67777	-0.08128255
70	0xbdbc1afa	-0.09184833
71	0xbca15e48	-0.019698277
72	0xbd9a7481	-0.075417526
73	0xbb058ddf	-0.0020378751
74	0xbd88878f	-0.06666481
75	0xbd0bf86d	-0.034172464
76	0x3ab25718	0.0013606278
77	0x3d101e5d	0.035185207
78	0xbb30ba2f	-0.0026966443
79	0xbcf60255	-0.030030409
80	0xbbffd7b2	-0.0078076953
81	0xbd9d5cda	-0.07683726
82	0x3cc17a3f	0.023617862
83	0xbcef2d04	-0.02919627
84	0x3c305b72	0.01076399
85	0xbd6cd6de	-0.0578221
86	0xbce195f2	-0.02753732
87	0xbcdcf817	-0.026973767
88	0xbd9323ca	-0.071845606
89	0xb78eebed	-1.703758e-05
90	0x3d061871	0.032738153
91	0x3cefc198	0.029267117
92	0x3d3f1019	0.04664621
93	0xbcea9fa3	-0.028640574
94	0xbc17694e	-0.009241415
95	0xbbf23478	-0.0073915087
96	0xbc6bf7fd	-0.014402387
97	0x3cb45c83	0.02201677
98	0xbc6160f8	-0.013756029
99	0xbd062c8e	-0.032757334
100	0xbda3a0cd	-0.07989655
101	0x3c81473e	0.015781041
102	0xbd0d69b2	-0.034524627
103	0xbd7e41e6	-0.062074564
104	0xbc5277bb	-0.012845929
105	0xbcd6cb07	-0.026219858
106	0xbc393336	-0.011303714
107	0xbd880c51	-0.06642974
108	0xbdb2cade	-0.087301
109	0x3d12c035	0.035827834
110	0xbbd4d18d	-0.006494707
111	0xbd46f4f5	-0.048573453
112	0xbc087e78	-0.008330934
113	0xbd270b7d	-0.04078244
114	0xbd04540b	-0.032306712
115	0xbd1a9304	-0.03773786
116	0x3d1bfa7b	0.038080674
117	0x3ccf0443	0.025270587
118	0xbd0d3480	-0.034473896
119	0xbcec0505	-0.028810987
120	0x3ad98118	0.0016594259
121	0xbd9600e1	-0.073243864
122	0xbdba7ae1	-0.091054685
123	0xbc28c050	-0.010299757
124	0x3be0545e	0.006845995
125	0x3d1e3ac4	0.038630262
126	0xbd41e430	-0.047336757
127	0xbdc3b928	-0.095568
128	0xbc8b8e8f	-0.01703575
129	0xba0fec8a	-0.0005490264
130	0xbd43af09	-0.04777435
131	0xbd664394	-0.05621679
132	0xbcc6e88c	-0.024280809
133	0xbda32248	-0.07965523
134	0xbd9daa56	-0.076985046
135	0xbd33f8af	-0.043938335
136	0xbbf77de0	-0.0075528473
137	0x3d00a228	0.031404644
138	0xbc0a647a	-0.008446807
139	0xbd731058	-0.05934176
140	0xbcc03552	-0.023462925
141	0xbac06728	-0.001467918
142	0xbd5e6ea9	-0.054304752
143	0xbd6819fd	-0.05666541
144	0x3cb75e95	0.022383967
145	0xbdad4fad	-0.084624626
146	0x3b84e74b	0.0040558926
147	0xbcc3fe59	-0.023924993
148	0xbd0ae93b	-0.033913832
149	0xbd76b566	-0.06023159
150	0xbc34fdea	-0.011046866
151	0xbc6f203b	-0.014595087
152	0xbcbaacf0	-0.022787541
153	0xbd837306	-0.06418423
154	0xbd49ab33	-0.049235534
155	0xbc9b00c3	-0.018921262
156	0xbd766e8b	-0.060164016
157	0x3c78026c	0.015137296
158	0x3b2c959b	0.002633429
159	0xbda1eeaa	-0.0790685
160	0xbd8aee65	-0.067837514
161	0xbdaa75f3	-0.08323278
162	0xbd0ce5c8	-0.034398824
163	0x3a2a9340	0.00065069273
164	0x3bfab809	0.007651333
165	0xbceab3e8	-0.02865024
166	0x3c9be6f0	0.019031018
167	0x3d38e2a1	0.045138005
168	0xbc3a70b2	-0.011379408
169	0x3d0af7b9	0.033927653
170	0xbcc76dc3	-0.02434433
171	0xbaf56ab5	-0.0018723818
172	0xbd81307b	-0.06308075
173	0x3cf4c67d	0.029879803
174	0xbc45347d	-0.01203644
175	0x3d4c320a	0.04985241
176	0x3cb6131c	0.022225909
177	0xbd8a518f	-0.06753837
178	0xbd466b14	-0.04844196
179	0xbd474611	-0.048650805
180	0x3b6c3a88	0.003604563
181	0x3cf81c61	0.03028697
182	0xbc58bb82	-0.013228299
183	0x3c9fd25c	0.019509487
184	0xbccebb56	-0.025235813
185	0xbcb264c0	-0.021776557
186	0xbd83b07b	-0.06430145
187	0x3d32c4ee	0.043644838
188	0x399134cc	0.00027695892
189	0xbab579b3	-0.0013845473
190	0xbc712e15	-0.0147204595
191	0xbcc43192	-0.023949418
192	0xbd79e439	-0.061008666
193	0x3c0cb66d	0.008588416
194	0x3bb6a4d2	0.0055738473
195	0xbc8b54af	-0.017008154
196	0xbd8c7eb6	-0.06860106
197	0xbd481494	-0.04884775
198	0x3d2e24c2	0.042515524
199	0xbcf3e5b9	-0.029772626
200	0xbc6296bf	-0.013829886
201	0xbadb6780	-0.001673922
202	0xbd8d9ad5	-0.069142975
203	0xbdfb8589	-0.12281329
204	0xbda018ce	-0.07817231
205	0xbdb19b60	-0.086722136
206	0xbd953598	-0.07285613
207	0xbc3e26dc	-0.0116059445
208	0x3b7383ae	0.0037157345
209	0xbd1a6280	-0.037691593
210	0xbd999dff	-0.075008385
211	0xbd492f9f	-0.04911768
212	0x3c1e9aa4	0.009680424
213	0x3c18d38f	0.009327783
214	0xbd4dea68	-0.050272375
215	0xbd3ac34a	-0.0455964
216	0xbcf7e7e9	-0.03026195
217	0xb939b2f5	-0.00017709642
218	0x3c5ecd52	0.013598757
219	0xbd662f4c	-0.05619745
220	0x3d1b34c2	0.03789211
221	0xbd29794c	-0.041375443
222	0x3ade44cc	0.0016957759
223	0xbda66820	-0.08125329
224	0xbcda14cc	-0.026621245
225	0x3c2895ef	0.010289653
226	0x3c39b034	0.011333514
227	0xbdd8fb37	-0.105947904
228	0xbc1bc8f7	-0.009508363
229	0xbc3645c6	-0.011125034
230	0x3c5a37c5	0.013318961
231	0xbccc1203	-0.024910932
232	0xbdc027c3	-0.09382584
233	0xbcc6b437	-0.024255855
234	0xbc8cf926	-0.017208647
235	0xbdade5b4	-0.08491078
236	0xbd2c7e05	-0.04211237
237	0xbd2809e9	-0.041025076
238	0xbdc9169d	-0.09818766
239	0xbda045aa	-0.07825787
240	0x3d2faadd	0.042887557
241	0xba4f0394	-0.00078969565
242	0xbd11527b	-0.03547905
243	0xbc8e6551	-0.017382296
244	0xbd430c25	-0.047619004
245	0xbda85cf7	-0.08220857
246	0xbd4a960d	-0.049459506
247	0xbd65db46	-0.05611732
248	0x3d24f8f5	0.040276486
249	0xbd3e8cca	-0.046520986
250	0xbbc0fc4b	-0.0058894507
251	0x3c8dcd52	0.017309818
252	0x3d2a6a77	0.04160544
253	0x3cbbe077	0.022934182
254	0xbd472dea	-0.04862777
255	0x3c29b3f8	0.010357849

linear3.weight f4 [3, 256]
0	0xbaf5b172	-0.00187449
1	0xbd7c3e24	-0.0615827
2	0xbd41fcae	-0.047360115
3	0x3b796afd	0.0038058155
4	0xbd5fb3d6	-0.054614864
5	0x3ccc0b10	0.024907619
6	0x3cf71b24	0.030164309
7	0x3c5fff03	0.013671639
8	0x3ce5d985	0.028057823
9	0xbd5aa9a0	-0.053384423
10	0xbd3eaa9f	-0.046549436
11	0x3c9bd38c	0.019021772
12	0x3b14b380	0.0022689998
13	0xbc9a6af9	-0.018849837
14	0xbc285f44	-0.010276619
15	0x38865ee9	6.407296e-05
16	0x3a7879c6	0.0009478595
17	0xbcb87b38	-0.022519693
18	0x39c3f2e2	0.0003737426
19	0x3c1f92d0	0.009739593
20	0x3a3b2f44	0.0007140527
21	0xbc8fc551	-0.017550142
22	0xbc690038	-0.014221244
23	0xbb87e56c	-0.0041472223
24	0x3b38392e	0.0028110254
25	0x3cf0631a	0.02934413
26	0x3c52f4b6	0.012875726
27	0xbd0aa5d9	-0.03384957
28	0xbce1d1d2	-0.02756587
29	0x3ce0f6f8	0.027461514
30	0xbb21a7ec	-0.002466674
31	0x3d10ab2e	0.0353195
32	0xbd020bf2	-0.031749673
33	0x3ba58701	0.005051494
34	0x3b18b43a	0.0023300783
35	0xbc580aca	-0.013186166
36	0xbc0ebd51	-0.008712129
37	0xbce2c435	-0.02768145
38	0x3ce8ef03	0.028434282
39	0xbcadd1e5	-0.02121825
40	0xbcb19d31	-0.0216814
41	0x3ab8c503	0.00140968
42	0xbb850550	-0.004059471
43	0x3d03ff1a	0.032225706
44	0xbc8543e8	-0.016267732
45	0x3b3d1a7c	0.0028854897
46	0x3d9f58c4	0.077806026
47	0x3c409746	0.011754816
48	0x3cbf62d5	0.023362556
49	0x3cd7acba	0.02632748
50	0xbd425aea	-0.047449984
51	0xbd7fc10d	-0.062439967
52	0x3cd7f6d8	0.026362821
53	0xb8ab71ea	-8.1751336e-05
54	0x3bb16ddb	0.005414707
55	0x3d610906	0.054940246
56	0x3adf32fa	0.0017028742
57	0xbd220cb9	-0.039562915
58	0xbba70473	-0.005096966
59	0x3d15bae0	0.03655517
60	0x3ca08af0	0.0195975
61	0xbda97674	-0.08274546
62	0x3b9b8d9a	0.004747105
63	0x3c1539ec	0.009108048
64	0x3c279d40	0.010230362
65	0xbd2078f2	-0.039177842
66	0xbd016bb4	-0.031596854
67	0xbaf8623f	-0.0018950178
68	0xbc93987f	-0.018017052
69	0xb62f1306	-2.6088105e-06
70	0xbc35d705	-0.011098628
71	0xbd7bf818	-0.061515898
72	0xbb8107a6	-0.0039376793
73	0x3c4540ca	0.012039373
74	0x3cb4b579	0.02205919
75	0xbd69a50e	-0.057042174
76	0x3c21228e	0.009834899
77	0xbc419954	-0.011816341
78	0xbaa90dfb	-0.0012897843
79	0x3cc8d571	0.02451584
80	0xbcc1de53	-0.023665583
81	0x3c828a7c	0.015935175
82	0x3c65d656	0.014028152
83	0x39a6f358	0.00031843293
84	0xbc7c2091	-0.015388624
85	0xbc7741d6	-0.01509138
86	0xbc9bdb04	-0.019025333
87	0x3bb493ba	0.0055107744
88	0x3b9afaa5	0.004729586
89	0xbad6189f	-0.0016334242
90	0xba9b70d9	-0.0011859193
91	0x3c466b1b	0.012110497
92	0x3c5eaef6	0.013591519
93	0xb98bd840	-0.00026673265
94	0xbbbde340	-0.0057949126
95	0xbc87a673	-0.016558861
96	0xbaae649b	-0.0013305129
97	0xbc9fca56	-0.019505661
98	0xbbb85629	-0.0056255055
99	0x3b63fbdd	0.0034787573
100	0x3b18ec04	0.0023334036
101	0xbae85ac8	-0.001772725
102	0x3bd9c780	0.0066460967
103	0x3c9cff70	0.01916477
104	0xba8b1d1b	-0.0010613533
105	0x3c69a228	0.0142598525
106	0xbbb0e4c0	-0.005398363
107	0x3ce5fb38	0.028073892
108	0xbc0522c9	-0.008125969
109	0xbcf0782d	-0.02935418
110	0xbbd07975	-0.006362135
111	0x3cc73252	0.024315987
112	0xbcfde548	-0.030993119
113	0x3b436a77	0.0029818097
114	0x3c674998	0.014116667
115	0x3cac87fc	0.021060936
116	0x3b1566a4	0.0022796774
117	0xbc505657	-0.0127158975
118	0x3cdcba5c	0.026944332
119	0x3bc54ef9	0.006021377
120	0x3d375f4a	0.04476861
121	0xbc5eadc3	-0.013591233
122	0xbce66daf	-0.028128473
123	0xbc4655c7	-0.012105412
124	0x3c9045b4	0.017611362
125	0xba99545a	-0.0011698112
126	0xbd24dfa4	-0.040252343
127	0xbd56a4b4	-0.052403167
128	0x3ced8804	0.028995521
129	0x3b5cbfa0	0.0033683553
130	0xbcd32878	-0.025776133
131	0xbd328748	-0.043586046
132	0xbd2b7987	-0.041863944
133	0xbbbd1e05	-0.005771401
134	0xbb6f206c	-0.003648783
135	0xb9f5cbc6	-0.00046881865
136	0x3d5e9bac	0.05434768
137	0xbd138af0	-0.036021173
138	0xbc316ac0	-0.010828674
139	0xbb49cab3	-0.0030790984
140	0xbd04d836	-0.032432757
141	0xbce24f08	-0.027625576
142	0xbb55c884	-0.0032620737
143	0x3a2c3c8b	0.0006570301
144	0x3a3937e9	0.0007065521
145	0xbcb45020	-0.022010863
146	0xbb83836d	-0.00401347
147	0xbcba24ce	-0.022722628
148	0xbc83c5b4	-0.016085483
149	0x3c88dcfa	0.016706932
150	0xbce7621a	-0.02824502
151	0xbb88892f	-0.004166744
152	0x3c9a8f80	0.018867254
153	0xbcb772f9	-0.02239369
154	0xbcfee098	-0.031112954
155	0x3c01f924	0.007932935
156	0x3b99a281	0.0046885614
157	0x3d327ac2	0.043574102
158	0x3cb0c3b4	0.021577694
159	0xbd2caa26	-0.042154454
160	0x3981a905	0.00024730727
161	0xbc19b632	-0.009381818
162	0xbc83bc47	-0.016080989
163	0x3d373110	0.044724524
164	0x3794e3fb	1.7749137e-05
165	0x3bf40349	0.0074466807
166	0xbd1495fd	-0.036275852
167	0x395b47ff	0.00020912288
168	0x3ce602c3	0.028077489
169	0xbc8b57fc	-0.017009728
170	0xba03f6da	-0.0005034037
171	0x3ac4cf58	0.0015015407
172	0xbc5fc586	-0.013657933
173	0xbcda6e90	-0.026664048
174	0x3ce90fc5	0.028449902
175	0x3d0cd2e4	0.03438081
176	0x3d1e903e	0.03871178
177	0xbd20bd4d	-0.03924303
178	0xbc1a43c1	-0.009415568
179	0xbc75ed31	-0.015010164
180	0xbd09a0a9	-0.033600483
181	0x3b72850e	0.0037005576
182	0x38101caf	3.435899e-05
183	0xbd01703e	-0.031601183
184	0xbd636890	-0.05551964
185	0xbbccf534	-0.0062548164
186	0xb8dafe7b	-0.00010442451
187	0xbc287d75	-0.010283818
188	0xbcc7f4cb	-0.024408719
189	0x39bdb695	0.00036184923
190	0x3bd9d357	0.006647508
191	0xbcd12004	-0.025527962
192	0xbc5f1428	-0.0136156455
193	0xbbd0a9bc	-0.00636789
194	0xbbf95c96	-0.007609914
195	0x3cc5bd93	0.024138248
196	0xbbdba4ac	-0.00670298
197	0xbb2b74b4	-0.002616209
198	0x3ba03750	0.0048894063
199	0x39894935	0.0002618522
200	0xbc217825	-0.009855305
201	0x3cc41034	0.023933508
202	0xbccd0cb2	-0.025030468
203	0x3b68f967	0.0035549046
204	0xbcdc2c51	-0.0268766
205	0x3caed1f5	0.02134035
206	0xbcff40f7	-0.031158907
207	0xbb28ec8c	-0.0025775759
208	0xbb93b5a0	-0.0045077354
209	0x3bfee212	0.0077784145
210	0xbc589b50	-0.013220623
211	0x3ca1b8b2	0.01974139
212	0xbadc2966	-0.0016797006
213	0x3c5140c3	0.012771788
214	0x3ce39175	0.02777932
215	0xbb996d99	-0.0046822545
216	0x3bc156e3	0.0059002503
217	0x3c0e3451	0.008679465
218	0xbc8ad52b	-0.01694735
219	0x3d1f7608	0.038930923
220	0xb99f58b7	-0.0003039294
221	0x3c549170	0.012974128
222	0xbbc1c965	-0.0059139007
223	0xb99c6c9b	-0.00029835556
224	0x3a3ed603	0.0007279815
225	0x3c4f7ef7	0.012664548
226	0xbd0c7f08	-0.034300834
227	0xbd2d6ee5	-0.042342085
228	0x3cb2a972	0.021809313
229	0xbca77aeb	-0.020444354
230	0xbb5b461c	-0.0033458536
231	0x39accb83	0.00032958025
232	0x3cb18d29	0.021673756
233	0xbd431f2c	-0.04763715
234	0x3c5e3f6e	0.0135649275
235	0xbc987fbc	-0.018615596
236	0x3cfe3473	0.03103087
237	0xbb572c27	-0.0032832713
238	0xbcf8e48d	-0.030382419
239	0xbd3a6168	-0.04550305
240	0x3c94f1bf	0.01818168
241	0xbc316462	-0.010827156
242	0x39fc74de	0.00048152258
243	0x3d2ade94	0.041716173
244	0x3ce8d951	0.028423937
245	0xbce8ebae	-0.028432693
246	0xb9d1d5aa	-0.0004002278
247	0x3c262300	0.010140181
248	0xbcb547c8	-0.022128955
249	0xbced71a2	-0.028984848
250	0x3cc51ee1	0.024062576
251	0x3cb869ae	0.02251133
252	0xbd183172	-0.03715653
253	0xbb70cd49	-0.0036743453
254	0xbc736113	-0.014854687
255	0xbd5346ea	-0.0515813

linear3.bias f4 [3]
0	0xbee8c037	-0.45459148
1	0xbee74d0b	-0.45175967
2	0xbee72a18	-0.45149302
